name: "ResNet269"
layer {
  name: "input"
  type: "Input"
  top: "data"
  input_param { shape { dim: __EXP_DEVICE_BATCH__ dim: 3 dim: 224 dim: 224 } }
}
layer {
  name: "conv1"
  type: "Convolution"
  bottom: "data"
  top: "conv1"
  convolution_param {
    num_output: 64
    bias_term: false
    pad: 3
    kernel_size: 7
    stride: 2
  }
}
layer {
  name: "bn_conv1"
  type: "BatchNorm"
  bottom: "conv1"
  top: "conv1"
  batch_norm_param {
    use_global_stats: true
  }
}
layer {
  name: "scale_conv1"
  type: "Scale"
  bottom: "conv1"
  top: "conv1"
  scale_param {
    bias_term: true
  }
}
layer {
  name: "conv1_relu"
  type: "ReLU"
  bottom: "conv1"
  top: "conv1"
}
layer {
  name: "pool1"
  type: "Pooling"
  bottom: "conv1"
  top: "pool1"
  pooling_param {
    pool: MAX
    kernel_size: 3
    stride: 2
  }
}
layer {
  name: "res2a_branch1"
  type: "Convolution"
  bottom: "pool1"
  top: "res2a_branch1"
  convolution_param {
    num_output: 256
    bias_term: false
    pad: 0
    kernel_size: 1
    stride: 1
  }
}
layer {
  name: "bn2a_branch1"
  type: "BatchNorm"
  bottom: "res2a_branch1"
  top: "res2a_branch1"
  batch_norm_param {
    use_global_stats: true
  }
}
layer {
  name: "scale2a_branch1"
  type: "Scale"
  bottom: "res2a_branch1"
  top: "res2a_branch1"
  scale_param {
    bias_term: true
  }
}
layer {
  name: "res2a_branch2a"
  type: "Convolution"
  bottom: "pool1"
  top: "res2a_branch2a"
  convolution_param {
    num_output: 64
    bias_term: false
    pad: 0
    kernel_size: 1
    stride: 1
  }
}
layer {
  name: "bn2a_branch2a"
  type: "BatchNorm"
  bottom: "res2a_branch2a"
  top: "res2a_branch2a"
  batch_norm_param {
    use_global_stats: true
  }
}
layer {
  name: "scale2a_branch2a"
  type: "Scale"
  bottom: "res2a_branch2a"
  top: "res2a_branch2a"
  scale_param {
    bias_term: true
  }
}
layer {
  name: "res2a_branch2a_relu"
  type: "ReLU"
  bottom: "res2a_branch2a"
  top: "res2a_branch2a"
}
layer {
  name: "res2a_branch2b"
  type: "Convolution"
  bottom: "res2a_branch2a"
  top: "res2a_branch2b"
  convolution_param {
    num_output: 64
    bias_term: false
    pad: 1
    kernel_size: 3
    stride: 1
  }
}
layer {
  name: "bn2a_branch2b"
  type: "BatchNorm"
  bottom: "res2a_branch2b"
  top: "res2a_branch2b"
  batch_norm_param {
    use_global_stats: true
  }
}
layer {
  name: "scale2a_branch2b"
  type: "Scale"
  bottom: "res2a_branch2b"
  top: "res2a_branch2b"
  scale_param {
    bias_term: true
  }
}
layer {
  name: "res2a_branch2b_relu"
  type: "ReLU"
  bottom: "res2a_branch2b"
  top: "res2a_branch2b"
}
layer {
  name: "res2a_branch2c"
  type: "Convolution"
  bottom: "res2a_branch2b"
  top: "res2a_branch2c"
  convolution_param {
    num_output: 256
    bias_term: false
    pad: 0
    kernel_size: 1
    stride: 1
  }
}
layer {
  name: "bn2a_branch2c"
  type: "BatchNorm"
  bottom: "res2a_branch2c"
  top: "res2a_branch2c"
  batch_norm_param {
    use_global_stats: true
  }
}
layer {
  name: "scale2a_branch2c"
  type: "Scale"
  bottom: "res2a_branch2c"
  top: "res2a_branch2c"
  scale_param {
    bias_term: true
  }
}
layer {
  name: "res2a"
  type: "Eltwise"
  bottom: "res2a_branch1"
  bottom: "res2a_branch2c"
  top: "res2a"
}
layer {
  name: "res2a_relu"
  type: "ReLU"
  bottom: "res2a"
  top: "res2a"
}
layer {
  name: "res2b_branch2a"
  type: "Convolution"
  bottom: "res2a"
  top: "res2b_branch2a"
  convolution_param {
    num_output: 64
    bias_term: false
    pad: 0
    kernel_size: 1
    stride: 1
  }
}
layer {
  name: "bn2b_branch2a"
  type: "BatchNorm"
  bottom: "res2b_branch2a"
  top: "res2b_branch2a"
  batch_norm_param {
    use_global_stats: true
  }
}
layer {
  name: "scale2b_branch2a"
  type: "Scale"
  bottom: "res2b_branch2a"
  top: "res2b_branch2a"
  scale_param {
    bias_term: true
  }
}
layer {
  name: "res2b_branch2a_relu"
  type: "ReLU"
  bottom: "res2b_branch2a"
  top: "res2b_branch2a"
}
layer {
  name: "res2b_branch2b"
  type: "Convolution"
  bottom: "res2b_branch2a"
  top: "res2b_branch2b"
  convolution_param {
    num_output: 64
    bias_term: false
    pad: 1
    kernel_size: 3
    stride: 1
  }
}
layer {
  name: "bn2b_branch2b"
  type: "BatchNorm"
  bottom: "res2b_branch2b"
  top: "res2b_branch2b"
  batch_norm_param {
    use_global_stats: true
  }
}
layer {
  name: "scale2b_branch2b"
  type: "Scale"
  bottom: "res2b_branch2b"
  top: "res2b_branch2b"
  scale_param {
    bias_term: true
  }
}
layer {
  name: "res2b_branch2b_relu"
  type: "ReLU"
  bottom: "res2b_branch2b"
  top: "res2b_branch2b"
}
layer {
  name: "res2b_branch2c"
  type: "Convolution"
  bottom: "res2b_branch2b"
  top: "res2b_branch2c"
  convolution_param {
    num_output: 256
    bias_term: false
    pad: 0
    kernel_size: 1
    stride: 1
  }
}
layer {
  name: "bn2b_branch2c"
  type: "BatchNorm"
  bottom: "res2b_branch2c"
  top: "res2b_branch2c"
  batch_norm_param {
    use_global_stats: true
  }
}
layer {
  name: "scale2b_branch2c"
  type: "Scale"
  bottom: "res2b_branch2c"
  top: "res2b_branch2c"
  scale_param {
    bias_term: true
  }
}
layer {
  name: "res2b"
  type: "Eltwise"
  bottom: "res2a"
  bottom: "res2b_branch2c"
  top: "res2b"
}
layer {
  name: "res2b_relu"
  type: "ReLU"
  bottom: "res2b"
  top: "res2b"
}
layer {
  name: "res2c_branch2a"
  type: "Convolution"
  bottom: "res2b"
  top: "res2c_branch2a"
  convolution_param {
    num_output: 64
    bias_term: false
    pad: 0
    kernel_size: 1
    stride: 1
  }
}
layer {
  name: "bn2c_branch2a"
  type: "BatchNorm"
  bottom: "res2c_branch2a"
  top: "res2c_branch2a"
  batch_norm_param {
    use_global_stats: true
  }
}
layer {
  name: "scale2c_branch2a"
  type: "Scale"
  bottom: "res2c_branch2a"
  top: "res2c_branch2a"
  scale_param {
    bias_term: true
  }
}
layer {
  name: "res2c_branch2a_relu"
  type: "ReLU"
  bottom: "res2c_branch2a"
  top: "res2c_branch2a"
}
layer {
  name: "res2c_branch2b"
  type: "Convolution"
  bottom: "res2c_branch2a"
  top: "res2c_branch2b"
  convolution_param {
    num_output: 64
    bias_term: false
    pad: 1
    kernel_size: 3
    stride: 1
  }
}
layer {
  name: "bn2c_branch2b"
  type: "BatchNorm"
  bottom: "res2c_branch2b"
  top: "res2c_branch2b"
  batch_norm_param {
    use_global_stats: true
  }
}
layer {
  name: "scale2c_branch2b"
  type: "Scale"
  bottom: "res2c_branch2b"
  top: "res2c_branch2b"
  scale_param {
    bias_term: true
  }
}
layer {
  name: "res2c_branch2b_relu"
  type: "ReLU"
  bottom: "res2c_branch2b"
  top: "res2c_branch2b"
}
layer {
  name: "res2c_branch2c"
  type: "Convolution"
  bottom: "res2c_branch2b"
  top: "res2c_branch2c"
  convolution_param {
    num_output: 256
    bias_term: false
    pad: 0
    kernel_size: 1
    stride: 1
  }
}
layer {
  name: "bn2c_branch2c"
  type: "BatchNorm"
  bottom: "res2c_branch2c"
  top: "res2c_branch2c"
  batch_norm_param {
    use_global_stats: true
  }
}
layer {
  name: "scale2c_branch2c"
  type: "Scale"
  bottom: "res2c_branch2c"
  top: "res2c_branch2c"
  scale_param {
    bias_term: true
  }
}
layer {
  name: "res2c"
  type: "Eltwise"
  bottom: "res2b"
  bottom: "res2c_branch2c"
  top: "res2c"
}
layer {
  name: "res2c_relu"
  type: "ReLU"
  bottom: "res2c"
  top: "res2c"
}
layer {
  name: "res3a_branch1"
  type: "Convolution"
  bottom: "res2c"
  top: "res3a_branch1"
  convolution_param {
    num_output: 512
    bias_term: false
    pad: 0
    kernel_size: 1
    stride: 2
  }
}
layer {
  name: "bn3a_branch1"
  type: "BatchNorm"
  bottom: "res3a_branch1"
  top: "res3a_branch1"
  batch_norm_param {
    use_global_stats: true
  }
}
layer {
  name: "scale3a_branch1"
  type: "Scale"
  bottom: "res3a_branch1"
  top: "res3a_branch1"
  scale_param {
    bias_term: true
  }
}
layer {
  name: "res3a_branch2a"
  type: "Convolution"
  bottom: "res2c"
  top: "res3a_branch2a"
  convolution_param {
    num_output: 128
    bias_term: false
    pad: 0
    kernel_size: 1
    stride: 2
  }
}
layer {
  name: "bn3a_branch2a"
  type: "BatchNorm"
  bottom: "res3a_branch2a"
  top: "res3a_branch2a"
  batch_norm_param {
    use_global_stats: true
  }
}
layer {
  name: "scale3a_branch2a"
  type: "Scale"
  bottom: "res3a_branch2a"
  top: "res3a_branch2a"
  scale_param {
    bias_term: true
  }
}
layer {
  name: "res3a_branch2a_relu"
  type: "ReLU"
  bottom: "res3a_branch2a"
  top: "res3a_branch2a"
}
layer {
  name: "res3a_branch2b"
  type: "Convolution"
  bottom: "res3a_branch2a"
  top: "res3a_branch2b"
  convolution_param {
    num_output: 128
    bias_term: false
    pad: 1
    kernel_size: 3
    stride: 1
  }
}
layer {
  name: "bn3a_branch2b"
  type: "BatchNorm"
  bottom: "res3a_branch2b"
  top: "res3a_branch2b"
  batch_norm_param {
    use_global_stats: true
  }
}
layer {
  name: "scale3a_branch2b"
  type: "Scale"
  bottom: "res3a_branch2b"
  top: "res3a_branch2b"
  scale_param {
    bias_term: true
  }
}
layer {
  name: "res3a_branch2b_relu"
  type: "ReLU"
  bottom: "res3a_branch2b"
  top: "res3a_branch2b"
}
layer {
  name: "res3a_branch2c"
  type: "Convolution"
  bottom: "res3a_branch2b"
  top: "res3a_branch2c"
  convolution_param {
    num_output: 512
    bias_term: false
    pad: 0
    kernel_size: 1
    stride: 1
  }
}
layer {
  name: "bn3a_branch2c"
  type: "BatchNorm"
  bottom: "res3a_branch2c"
  top: "res3a_branch2c"
  batch_norm_param {
    use_global_stats: true
  }
}
layer {
  name: "scale3a_branch2c"
  type: "Scale"
  bottom: "res3a_branch2c"
  top: "res3a_branch2c"
  scale_param {
    bias_term: true
  }
}
layer {
  name: "res3a"
  type: "Eltwise"
  bottom: "res3a_branch1"
  bottom: "res3a_branch2c"
  top: "res3a"
}
layer {
  name: "res3a_relu"
  type: "ReLU"
  bottom: "res3a"
  top: "res3a"
}
layer {
  name: "res3b1_branch2a"
  type: "Convolution"
  bottom: "res3a"
  top: "res3b1_branch2a"
  convolution_param {
    num_output: 128
    bias_term: false
    pad: 0
    kernel_size: 1
    stride: 1
  }
}
layer {
  name: "bn3b1_branch2a"
  type: "BatchNorm"
  bottom: "res3b1_branch2a"
  top: "res3b1_branch2a"
  batch_norm_param {
    use_global_stats: true
  }
}
layer {
  name: "scale3b1_branch2a"
  type: "Scale"
  bottom: "res3b1_branch2a"
  top: "res3b1_branch2a"
  scale_param {
    bias_term: true
  }
}
layer {
  name: "res3b1_branch2a_relu"
  type: "ReLU"
  bottom: "res3b1_branch2a"
  top: "res3b1_branch2a"
}
layer {
  name: "res3b1_branch2b"
  type: "Convolution"
  bottom: "res3b1_branch2a"
  top: "res3b1_branch2b"
  convolution_param {
    num_output: 128
    bias_term: false
    pad: 1
    kernel_size: 3
    stride: 1
  }
}
layer {
  name: "bn3b1_branch2b"
  type: "BatchNorm"
  bottom: "res3b1_branch2b"
  top: "res3b1_branch2b"
  batch_norm_param {
    use_global_stats: true
  }
}
layer {
  name: "scale3b1_branch2b"
  type: "Scale"
  bottom: "res3b1_branch2b"
  top: "res3b1_branch2b"
  scale_param {
    bias_term: true
  }
}
layer {
  name: "res3b1_branch2b_relu"
  type: "ReLU"
  bottom: "res3b1_branch2b"
  top: "res3b1_branch2b"
}
layer {
  name: "res3b1_branch2c"
  type: "Convolution"
  bottom: "res3b1_branch2b"
  top: "res3b1_branch2c"
  convolution_param {
    num_output: 512
    bias_term: false
    pad: 0
    kernel_size: 1
    stride: 1
  }
}
layer {
  name: "bn3b1_branch2c"
  type: "BatchNorm"
  bottom: "res3b1_branch2c"
  top: "res3b1_branch2c"
  batch_norm_param {
    use_global_stats: true
  }
}
layer {
  name: "scale3b1_branch2c"
  type: "Scale"
  bottom: "res3b1_branch2c"
  top: "res3b1_branch2c"
  scale_param {
    bias_term: true
  }
}
layer {
  name: "res3b1"
  type: "Eltwise"
  bottom: "res3a"
  bottom: "res3b1_branch2c"
  top: "res3b1"
}
layer {
  name: "res3b1_relu"
  type: "ReLU"
  bottom: "res3b1"
  top: "res3b1"
}
layer {
  name: "res3b2_branch2a"
  type: "Convolution"
  bottom: "res3b1"
  top: "res3b2_branch2a"
  convolution_param {
    num_output: 128
    bias_term: false
    pad: 0
    kernel_size: 1
    stride: 1
  }
}
layer {
  name: "bn3b2_branch2a"
  type: "BatchNorm"
  bottom: "res3b2_branch2a"
  top: "res3b2_branch2a"
  batch_norm_param {
    use_global_stats: true
  }
}
layer {
  name: "scale3b2_branch2a"
  type: "Scale"
  bottom: "res3b2_branch2a"
  top: "res3b2_branch2a"
  scale_param {
    bias_term: true
  }
}
layer {
  name: "res3b2_branch2a_relu"
  type: "ReLU"
  bottom: "res3b2_branch2a"
  top: "res3b2_branch2a"
}
layer {
  name: "res3b2_branch2b"
  type: "Convolution"
  bottom: "res3b2_branch2a"
  top: "res3b2_branch2b"
  convolution_param {
    num_output: 128
    bias_term: false
    pad: 1
    kernel_size: 3
    stride: 1
  }
}
layer {
  name: "bn3b2_branch2b"
  type: "BatchNorm"
  bottom: "res3b2_branch2b"
  top: "res3b2_branch2b"
  batch_norm_param {
    use_global_stats: true
  }
}
layer {
  name: "scale3b2_branch2b"
  type: "Scale"
  bottom: "res3b2_branch2b"
  top: "res3b2_branch2b"
  scale_param {
    bias_term: true
  }
}
layer {
  name: "res3b2_branch2b_relu"
  type: "ReLU"
  bottom: "res3b2_branch2b"
  top: "res3b2_branch2b"
}
layer {
  name: "res3b2_branch2c"
  type: "Convolution"
  bottom: "res3b2_branch2b"
  top: "res3b2_branch2c"
  convolution_param {
    num_output: 512
    bias_term: false
    pad: 0
    kernel_size: 1
    stride: 1
  }
}
layer {
  name: "bn3b2_branch2c"
  type: "BatchNorm"
  bottom: "res3b2_branch2c"
  top: "res3b2_branch2c"
  batch_norm_param {
    use_global_stats: true
  }
}
layer {
  name: "scale3b2_branch2c"
  type: "Scale"
  bottom: "res3b2_branch2c"
  top: "res3b2_branch2c"
  scale_param {
    bias_term: true
  }
}
layer {
  name: "res3b2"
  type: "Eltwise"
  bottom: "res3b1"
  bottom: "res3b2_branch2c"
  top: "res3b2"
}
layer {
  name: "res3b2_relu"
  type: "ReLU"
  bottom: "res3b2"
  top: "res3b2"
}
layer {
  name: "res3b3_branch2a"
  type: "Convolution"
  bottom: "res3b2"
  top: "res3b3_branch2a"
  convolution_param {
    num_output: 128
    bias_term: false
    pad: 0
    kernel_size: 1
    stride: 1
  }
}
layer {
  name: "bn3b3_branch2a"
  type: "BatchNorm"
  bottom: "res3b3_branch2a"
  top: "res3b3_branch2a"
  batch_norm_param {
    use_global_stats: true
  }
}
layer {
  name: "scale3b3_branch2a"
  type: "Scale"
  bottom: "res3b3_branch2a"
  top: "res3b3_branch2a"
  scale_param {
    bias_term: true
  }
}
layer {
  name: "res3b3_branch2a_relu"
  type: "ReLU"
  bottom: "res3b3_branch2a"
  top: "res3b3_branch2a"
}
layer {
  name: "res3b3_branch2b"
  type: "Convolution"
  bottom: "res3b3_branch2a"
  top: "res3b3_branch2b"
  convolution_param {
    num_output: 128
    bias_term: false
    pad: 1
    kernel_size: 3
    stride: 1
  }
}
layer {
  name: "bn3b3_branch2b"
  type: "BatchNorm"
  bottom: "res3b3_branch2b"
  top: "res3b3_branch2b"
  batch_norm_param {
    use_global_stats: true
  }
}
layer {
  name: "scale3b3_branch2b"
  type: "Scale"
  bottom: "res3b3_branch2b"
  top: "res3b3_branch2b"
  scale_param {
    bias_term: true
  }
}
layer {
  name: "res3b3_branch2b_relu"
  type: "ReLU"
  bottom: "res3b3_branch2b"
  top: "res3b3_branch2b"
}
layer {
  name: "res3b3_branch2c"
  type: "Convolution"
  bottom: "res3b3_branch2b"
  top: "res3b3_branch2c"
  convolution_param {
    num_output: 512
    bias_term: false
    pad: 0
    kernel_size: 1
    stride: 1
  }
}
layer {
  name: "bn3b3_branch2c"
  type: "BatchNorm"
  bottom: "res3b3_branch2c"
  top: "res3b3_branch2c"
  batch_norm_param {
    use_global_stats: true
  }
}
layer {
  name: "scale3b3_branch2c"
  type: "Scale"
  bottom: "res3b3_branch2c"
  top: "res3b3_branch2c"
  scale_param {
    bias_term: true
  }
}
layer {
  name: "res3b3"
  type: "Eltwise"
  bottom: "res3b2"
  bottom: "res3b3_branch2c"
  top: "res3b3"
}
layer {
  name: "res3b3_relu"
  type: "ReLU"
  bottom: "res3b3"
  top: "res3b3"
}
layer {
  name: "res3b4_branch2a"
  type: "Convolution"
  bottom: "res3b3"
  top: "res3b4_branch2a"
  convolution_param {
    num_output: 128
    bias_term: false
    pad: 0
    kernel_size: 1
    stride: 1
  }
}
layer {
  name: "bn3b4_branch2a"
  type: "BatchNorm"
  bottom: "res3b4_branch2a"
  top: "res3b4_branch2a"
  batch_norm_param {
    use_global_stats: true
  }
}
layer {
  name: "scale3b4_branch2a"
  type: "Scale"
  bottom: "res3b4_branch2a"
  top: "res3b4_branch2a"
  scale_param {
    bias_term: true
  }
}
layer {
  name: "res3b4_branch2a_relu"
  type: "ReLU"
  bottom: "res3b4_branch2a"
  top: "res3b4_branch2a"
}
layer {
  name: "res3b4_branch2b"
  type: "Convolution"
  bottom: "res3b4_branch2a"
  top: "res3b4_branch2b"
  convolution_param {
    num_output: 128
    bias_term: false
    pad: 1
    kernel_size: 3
    stride: 1
  }
}
layer {
  name: "bn3b4_branch2b"
  type: "BatchNorm"
  bottom: "res3b4_branch2b"
  top: "res3b4_branch2b"
  batch_norm_param {
    use_global_stats: true
  }
}
layer {
  name: "scale3b4_branch2b"
  type: "Scale"
  bottom: "res3b4_branch2b"
  top: "res3b4_branch2b"
  scale_param {
    bias_term: true
  }
}
layer {
  name: "res3b4_branch2b_relu"
  type: "ReLU"
  bottom: "res3b4_branch2b"
  top: "res3b4_branch2b"
}
layer {
  name: "res3b4_branch2c"
  type: "Convolution"
  bottom: "res3b4_branch2b"
  top: "res3b4_branch2c"
  convolution_param {
    num_output: 512
    bias_term: false
    pad: 0
    kernel_size: 1
    stride: 1
  }
}
layer {
  name: "bn3b4_branch2c"
  type: "BatchNorm"
  bottom: "res3b4_branch2c"
  top: "res3b4_branch2c"
  batch_norm_param {
    use_global_stats: true
  }
}
layer {
  name: "scale3b4_branch2c"
  type: "Scale"
  bottom: "res3b4_branch2c"
  top: "res3b4_branch2c"
  scale_param {
    bias_term: true
  }
}
layer {
  name: "res3b4"
  type: "Eltwise"
  bottom: "res3b3"
  bottom: "res3b4_branch2c"
  top: "res3b4"
}
layer {
  name: "res3b4_relu"
  type: "ReLU"
  bottom: "res3b4"
  top: "res3b4"
}
layer {
  name: "res3b5_branch2a"
  type: "Convolution"
  bottom: "res3b4"
  top: "res3b5_branch2a"
  convolution_param {
    num_output: 128
    bias_term: false
    pad: 0
    kernel_size: 1
    stride: 1
  }
}
layer {
  name: "bn3b5_branch2a"
  type: "BatchNorm"
  bottom: "res3b5_branch2a"
  top: "res3b5_branch2a"
  batch_norm_param {
    use_global_stats: true
  }
}
layer {
  name: "scale3b5_branch2a"
  type: "Scale"
  bottom: "res3b5_branch2a"
  top: "res3b5_branch2a"
  scale_param {
    bias_term: true
  }
}
layer {
  name: "res3b5_branch2a_relu"
  type: "ReLU"
  bottom: "res3b5_branch2a"
  top: "res3b5_branch2a"
}
layer {
  name: "res3b5_branch2b"
  type: "Convolution"
  bottom: "res3b5_branch2a"
  top: "res3b5_branch2b"
  convolution_param {
    num_output: 128
    bias_term: false
    pad: 1
    kernel_size: 3
    stride: 1
  }
}
layer {
  name: "bn3b5_branch2b"
  type: "BatchNorm"
  bottom: "res3b5_branch2b"
  top: "res3b5_branch2b"
  batch_norm_param {
    use_global_stats: true
  }
}
layer {
  name: "scale3b5_branch2b"
  type: "Scale"
  bottom: "res3b5_branch2b"
  top: "res3b5_branch2b"
  scale_param {
    bias_term: true
  }
}
layer {
  name: "res3b5_branch2b_relu"
  type: "ReLU"
  bottom: "res3b5_branch2b"
  top: "res3b5_branch2b"
}
layer {
  name: "res3b5_branch2c"
  type: "Convolution"
  bottom: "res3b5_branch2b"
  top: "res3b5_branch2c"
  convolution_param {
    num_output: 512
    bias_term: false
    pad: 0
    kernel_size: 1
    stride: 1
  }
}
layer {
  name: "bn3b5_branch2c"
  type: "BatchNorm"
  bottom: "res3b5_branch2c"
  top: "res3b5_branch2c"
  batch_norm_param {
    use_global_stats: true
  }
}
layer {
  name: "scale3b5_branch2c"
  type: "Scale"
  bottom: "res3b5_branch2c"
  top: "res3b5_branch2c"
  scale_param {
    bias_term: true
  }
}
layer {
  name: "res3b5"
  type: "Eltwise"
  bottom: "res3b4"
  bottom: "res3b5_branch2c"
  top: "res3b5"
}
layer {
  name: "res3b5_relu"
  type: "ReLU"
  bottom: "res3b5"
  top: "res3b5"
}
layer {
  name: "res3b6_branch2a"
  type: "Convolution"
  bottom: "res3b5"
  top: "res3b6_branch2a"
  convolution_param {
    num_output: 128
    bias_term: false
    pad: 0
    kernel_size: 1
    stride: 1
  }
}
layer {
  name: "bn3b6_branch2a"
  type: "BatchNorm"
  bottom: "res3b6_branch2a"
  top: "res3b6_branch2a"
  batch_norm_param {
    use_global_stats: true
  }
}
layer {
  name: "scale3b6_branch2a"
  type: "Scale"
  bottom: "res3b6_branch2a"
  top: "res3b6_branch2a"
  scale_param {
    bias_term: true
  }
}
layer {
  name: "res3b6_branch2a_relu"
  type: "ReLU"
  bottom: "res3b6_branch2a"
  top: "res3b6_branch2a"
}
layer {
  name: "res3b6_branch2b"
  type: "Convolution"
  bottom: "res3b6_branch2a"
  top: "res3b6_branch2b"
  convolution_param {
    num_output: 128
    bias_term: false
    pad: 1
    kernel_size: 3
    stride: 1
  }
}
layer {
  name: "bn3b6_branch2b"
  type: "BatchNorm"
  bottom: "res3b6_branch2b"
  top: "res3b6_branch2b"
  batch_norm_param {
    use_global_stats: true
  }
}
layer {
  name: "scale3b6_branch2b"
  type: "Scale"
  bottom: "res3b6_branch2b"
  top: "res3b6_branch2b"
  scale_param {
    bias_term: true
  }
}
layer {
  name: "res3b6_branch2b_relu"
  type: "ReLU"
  bottom: "res3b6_branch2b"
  top: "res3b6_branch2b"
}
layer {
  name: "res3b6_branch2c"
  type: "Convolution"
  bottom: "res3b6_branch2b"
  top: "res3b6_branch2c"
  convolution_param {
    num_output: 512
    bias_term: false
    pad: 0
    kernel_size: 1
    stride: 1
  }
}
layer {
  name: "bn3b6_branch2c"
  type: "BatchNorm"
  bottom: "res3b6_branch2c"
  top: "res3b6_branch2c"
  batch_norm_param {
    use_global_stats: true
  }
}
layer {
  name: "scale3b6_branch2c"
  type: "Scale"
  bottom: "res3b6_branch2c"
  top: "res3b6_branch2c"
  scale_param {
    bias_term: true
  }
}
layer {
  name: "res3b6"
  type: "Eltwise"
  bottom: "res3b5"
  bottom: "res3b6_branch2c"
  top: "res3b6"
}
layer {
  name: "res3b6_relu"
  type: "ReLU"
  bottom: "res3b6"
  top: "res3b6"
}
layer {
  name: "res3b7_branch2a"
  type: "Convolution"
  bottom: "res3b6"
  top: "res3b7_branch2a"
  convolution_param {
    num_output: 128
    bias_term: false
    pad: 0
    kernel_size: 1
    stride: 1
  }
}
layer {
  name: "bn3b7_branch2a"
  type: "BatchNorm"
  bottom: "res3b7_branch2a"
  top: "res3b7_branch2a"
  batch_norm_param {
    use_global_stats: true
  }
}
layer {
  name: "scale3b7_branch2a"
  type: "Scale"
  bottom: "res3b7_branch2a"
  top: "res3b7_branch2a"
  scale_param {
    bias_term: true
  }
}
layer {
  name: "res3b7_branch2a_relu"
  type: "ReLU"
  bottom: "res3b7_branch2a"
  top: "res3b7_branch2a"
}
layer {
  name: "res3b7_branch2b"
  type: "Convolution"
  bottom: "res3b7_branch2a"
  top: "res3b7_branch2b"
  convolution_param {
    num_output: 128
    bias_term: false
    pad: 1
    kernel_size: 3
    stride: 1
  }
}
layer {
  name: "bn3b7_branch2b"
  type: "BatchNorm"
  bottom: "res3b7_branch2b"
  top: "res3b7_branch2b"
  batch_norm_param {
    use_global_stats: true
  }
}
layer {
  name: "scale3b7_branch2b"
  type: "Scale"
  bottom: "res3b7_branch2b"
  top: "res3b7_branch2b"
  scale_param {
    bias_term: true
  }
}
layer {
  name: "res3b7_branch2b_relu"
  type: "ReLU"
  bottom: "res3b7_branch2b"
  top: "res3b7_branch2b"
}
layer {
  name: "res3b7_branch2c"
  type: "Convolution"
  bottom: "res3b7_branch2b"
  top: "res3b7_branch2c"
  convolution_param {
    num_output: 512
    bias_term: false
    pad: 0
    kernel_size: 1
    stride: 1
  }
}
layer {
  name: "bn3b7_branch2c"
  type: "BatchNorm"
  bottom: "res3b7_branch2c"
  top: "res3b7_branch2c"
  batch_norm_param {
    use_global_stats: true
  }
}
layer {
  name: "scale3b7_branch2c"
  type: "Scale"
  bottom: "res3b7_branch2c"
  top: "res3b7_branch2c"
  scale_param {
    bias_term: true
  }
}
layer {
  name: "res3b7"
  type: "Eltwise"
  bottom: "res3b6"
  bottom: "res3b7_branch2c"
  top: "res3b7"
}
layer {
  name: "res3b7_relu"
  type: "ReLU"
  bottom: "res3b7"
  top: "res3b7"
}
layer {
  name: "res3b8_branch2a"
  type: "Convolution"
  bottom: "res3b7"
  top: "res3b8_branch2a"
  convolution_param {
    num_output: 128
    bias_term: false
    pad: 0
    kernel_size: 1
    stride: 1
  }
}
layer {
  name: "bn3b8_branch2a"
  type: "BatchNorm"
  bottom: "res3b8_branch2a"
  top: "res3b8_branch2a"
  batch_norm_param {
    use_global_stats: true
  }
}
layer {
  name: "scale3b8_branch2a"
  type: "Scale"
  bottom: "res3b8_branch2a"
  top: "res3b8_branch2a"
  scale_param {
    bias_term: true
  }
}
layer {
  name: "res3b8_branch2a_relu"
  type: "ReLU"
  bottom: "res3b8_branch2a"
  top: "res3b8_branch2a"
}
layer {
  name: "res3b8_branch2b"
  type: "Convolution"
  bottom: "res3b8_branch2a"
  top: "res3b8_branch2b"
  convolution_param {
    num_output: 128
    bias_term: false
    pad: 1
    kernel_size: 3
    stride: 1
  }
}
layer {
  name: "bn3b8_branch2b"
  type: "BatchNorm"
  bottom: "res3b8_branch2b"
  top: "res3b8_branch2b"
  batch_norm_param {
    use_global_stats: true
  }
}
layer {
  name: "scale3b8_branch2b"
  type: "Scale"
  bottom: "res3b8_branch2b"
  top: "res3b8_branch2b"
  scale_param {
    bias_term: true
  }
}
layer {
  name: "res3b8_branch2b_relu"
  type: "ReLU"
  bottom: "res3b8_branch2b"
  top: "res3b8_branch2b"
}
layer {
  name: "res3b8_branch2c"
  type: "Convolution"
  bottom: "res3b8_branch2b"
  top: "res3b8_branch2c"
  convolution_param {
    num_output: 512
    bias_term: false
    pad: 0
    kernel_size: 1
    stride: 1
  }
}
layer {
  name: "bn3b8_branch2c"
  type: "BatchNorm"
  bottom: "res3b8_branch2c"
  top: "res3b8_branch2c"
  batch_norm_param {
    use_global_stats: true
  }
}
layer {
  name: "scale3b8_branch2c"
  type: "Scale"
  bottom: "res3b8_branch2c"
  top: "res3b8_branch2c"
  scale_param {
    bias_term: true
  }
}
layer {
  name: "res3b8"
  type: "Eltwise"
  bottom: "res3b7"
  bottom: "res3b8_branch2c"
  top: "res3b8"
}
layer {
  name: "res3b8_relu"
  type: "ReLU"
  bottom: "res3b8"
  top: "res3b8"
}
layer {
  name: "res3b9_branch2a"
  type: "Convolution"
  bottom: "res3b8"
  top: "res3b9_branch2a"
  convolution_param {
    num_output: 128
    bias_term: false
    pad: 0
    kernel_size: 1
    stride: 1
  }
}
layer {
  name: "bn3b9_branch2a"
  type: "BatchNorm"
  bottom: "res3b9_branch2a"
  top: "res3b9_branch2a"
  batch_norm_param {
    use_global_stats: true
  }
}
layer {
  name: "scale3b9_branch2a"
  type: "Scale"
  bottom: "res3b9_branch2a"
  top: "res3b9_branch2a"
  scale_param {
    bias_term: true
  }
}
layer {
  name: "res3b9_branch2a_relu"
  type: "ReLU"
  bottom: "res3b9_branch2a"
  top: "res3b9_branch2a"
}
layer {
  name: "res3b9_branch2b"
  type: "Convolution"
  bottom: "res3b9_branch2a"
  top: "res3b9_branch2b"
  convolution_param {
    num_output: 128
    bias_term: false
    pad: 1
    kernel_size: 3
    stride: 1
  }
}
layer {
  name: "bn3b9_branch2b"
  type: "BatchNorm"
  bottom: "res3b9_branch2b"
  top: "res3b9_branch2b"
  batch_norm_param {
    use_global_stats: true
  }
}
layer {
  name: "scale3b9_branch2b"
  type: "Scale"
  bottom: "res3b9_branch2b"
  top: "res3b9_branch2b"
  scale_param {
    bias_term: true
  }
}
layer {
  name: "res3b9_branch2b_relu"
  type: "ReLU"
  bottom: "res3b9_branch2b"
  top: "res3b9_branch2b"
}
layer {
  name: "res3b9_branch2c"
  type: "Convolution"
  bottom: "res3b9_branch2b"
  top: "res3b9_branch2c"
  convolution_param {
    num_output: 512
    bias_term: false
    pad: 0
    kernel_size: 1
    stride: 1
  }
}
layer {
  name: "bn3b9_branch2c"
  type: "BatchNorm"
  bottom: "res3b9_branch2c"
  top: "res3b9_branch2c"
  batch_norm_param {
    use_global_stats: true
  }
}
layer {
  name: "scale3b9_branch2c"
  type: "Scale"
  bottom: "res3b9_branch2c"
  top: "res3b9_branch2c"
  scale_param {
    bias_term: true
  }
}
layer {
  name: "res3b9"
  type: "Eltwise"
  bottom: "res3b8"
  bottom: "res3b9_branch2c"
  top: "res3b9"
}
layer {
  name: "res3b9_relu"
  type: "ReLU"
  bottom: "res3b9"
  top: "res3b9"
}
layer {
  name: "res3b10_branch2a"
  type: "Convolution"
  bottom: "res3b9"
  top: "res3b10_branch2a"
  convolution_param {
    num_output: 128
    bias_term: false
    pad: 0
    kernel_size: 1
    stride: 1
  }
}
layer {
  name: "bn3b10_branch2a"
  type: "BatchNorm"
  bottom: "res3b10_branch2a"
  top: "res3b10_branch2a"
  batch_norm_param {
    use_global_stats: true
  }
}
layer {
  name: "scale3b10_branch2a"
  type: "Scale"
  bottom: "res3b10_branch2a"
  top: "res3b10_branch2a"
  scale_param {
    bias_term: true
  }
}
layer {
  name: "res3b10_branch2a_relu"
  type: "ReLU"
  bottom: "res3b10_branch2a"
  top: "res3b10_branch2a"
}
layer {
  name: "res3b10_branch2b"
  type: "Convolution"
  bottom: "res3b10_branch2a"
  top: "res3b10_branch2b"
  convolution_param {
    num_output: 128
    bias_term: false
    pad: 1
    kernel_size: 3
    stride: 1
  }
}
layer {
  name: "bn3b10_branch2b"
  type: "BatchNorm"
  bottom: "res3b10_branch2b"
  top: "res3b10_branch2b"
  batch_norm_param {
    use_global_stats: true
  }
}
layer {
  name: "scale3b10_branch2b"
  type: "Scale"
  bottom: "res3b10_branch2b"
  top: "res3b10_branch2b"
  scale_param {
    bias_term: true
  }
}
layer {
  name: "res3b10_branch2b_relu"
  type: "ReLU"
  bottom: "res3b10_branch2b"
  top: "res3b10_branch2b"
}
layer {
  name: "res3b10_branch2c"
  type: "Convolution"
  bottom: "res3b10_branch2b"
  top: "res3b10_branch2c"
  convolution_param {
    num_output: 512
    bias_term: false
    pad: 0
    kernel_size: 1
    stride: 1
  }
}
layer {
  name: "bn3b10_branch2c"
  type: "BatchNorm"
  bottom: "res3b10_branch2c"
  top: "res3b10_branch2c"
  batch_norm_param {
    use_global_stats: true
  }
}
layer {
  name: "scale3b10_branch2c"
  type: "Scale"
  bottom: "res3b10_branch2c"
  top: "res3b10_branch2c"
  scale_param {
    bias_term: true
  }
}
layer {
  name: "res3b10"
  type: "Eltwise"
  bottom: "res3b9"
  bottom: "res3b10_branch2c"
  top: "res3b10"
}
layer {
  name: "res3b10_relu"
  type: "ReLU"
  bottom: "res3b10"
  top: "res3b10"
}
layer {
  name: "res3b11_branch2a"
  type: "Convolution"
  bottom: "res3b10"
  top: "res3b11_branch2a"
  convolution_param {
    num_output: 128
    bias_term: false
    pad: 0
    kernel_size: 1
    stride: 1
  }
}
layer {
  name: "bn3b11_branch2a"
  type: "BatchNorm"
  bottom: "res3b11_branch2a"
  top: "res3b11_branch2a"
  batch_norm_param {
    use_global_stats: true
  }
}
layer {
  name: "scale3b11_branch2a"
  type: "Scale"
  bottom: "res3b11_branch2a"
  top: "res3b11_branch2a"
  scale_param {
    bias_term: true
  }
}
layer {
  name: "res3b11_branch2a_relu"
  type: "ReLU"
  bottom: "res3b11_branch2a"
  top: "res3b11_branch2a"
}
layer {
  name: "res3b11_branch2b"
  type: "Convolution"
  bottom: "res3b11_branch2a"
  top: "res3b11_branch2b"
  convolution_param {
    num_output: 128
    bias_term: false
    pad: 1
    kernel_size: 3
    stride: 1
  }
}
layer {
  name: "bn3b11_branch2b"
  type: "BatchNorm"
  bottom: "res3b11_branch2b"
  top: "res3b11_branch2b"
  batch_norm_param {
    use_global_stats: true
  }
}
layer {
  name: "scale3b11_branch2b"
  type: "Scale"
  bottom: "res3b11_branch2b"
  top: "res3b11_branch2b"
  scale_param {
    bias_term: true
  }
}
layer {
  name: "res3b11_branch2b_relu"
  type: "ReLU"
  bottom: "res3b11_branch2b"
  top: "res3b11_branch2b"
}
layer {
  name: "res3b11_branch2c"
  type: "Convolution"
  bottom: "res3b11_branch2b"
  top: "res3b11_branch2c"
  convolution_param {
    num_output: 512
    bias_term: false
    pad: 0
    kernel_size: 1
    stride: 1
  }
}
layer {
  name: "bn3b11_branch2c"
  type: "BatchNorm"
  bottom: "res3b11_branch2c"
  top: "res3b11_branch2c"
  batch_norm_param {
    use_global_stats: true
  }
}
layer {
  name: "scale3b11_branch2c"
  type: "Scale"
  bottom: "res3b11_branch2c"
  top: "res3b11_branch2c"
  scale_param {
    bias_term: true
  }
}
layer {
  name: "res3b11"
  type: "Eltwise"
  bottom: "res3b10"
  bottom: "res3b11_branch2c"
  top: "res3b11"
}
layer {
  name: "res3b11_relu"
  type: "ReLU"
  bottom: "res3b11"
  top: "res3b11"
}
layer {
  name: "res3b12_branch2a"
  type: "Convolution"
  bottom: "res3b11"
  top: "res3b12_branch2a"
  convolution_param {
    num_output: 128
    bias_term: false
    pad: 0
    kernel_size: 1
    stride: 1
  }
}
layer {
  name: "bn3b12_branch2a"
  type: "BatchNorm"
  bottom: "res3b12_branch2a"
  top: "res3b12_branch2a"
  batch_norm_param {
    use_global_stats: true
  }
}
layer {
  name: "scale3b12_branch2a"
  type: "Scale"
  bottom: "res3b12_branch2a"
  top: "res3b12_branch2a"
  scale_param {
    bias_term: true
  }
}
layer {
  name: "res3b12_branch2a_relu"
  type: "ReLU"
  bottom: "res3b12_branch2a"
  top: "res3b12_branch2a"
}
layer {
  name: "res3b12_branch2b"
  type: "Convolution"
  bottom: "res3b12_branch2a"
  top: "res3b12_branch2b"
  convolution_param {
    num_output: 128
    bias_term: false
    pad: 1
    kernel_size: 3
    stride: 1
  }
}
layer {
  name: "bn3b12_branch2b"
  type: "BatchNorm"
  bottom: "res3b12_branch2b"
  top: "res3b12_branch2b"
  batch_norm_param {
    use_global_stats: true
  }
}
layer {
  name: "scale3b12_branch2b"
  type: "Scale"
  bottom: "res3b12_branch2b"
  top: "res3b12_branch2b"
  scale_param {
    bias_term: true
  }
}
layer {
  name: "res3b12_branch2b_relu"
  type: "ReLU"
  bottom: "res3b12_branch2b"
  top: "res3b12_branch2b"
}
layer {
  name: "res3b12_branch2c"
  type: "Convolution"
  bottom: "res3b12_branch2b"
  top: "res3b12_branch2c"
  convolution_param {
    num_output: 512
    bias_term: false
    pad: 0
    kernel_size: 1
    stride: 1
  }
}
layer {
  name: "bn3b12_branch2c"
  type: "BatchNorm"
  bottom: "res3b12_branch2c"
  top: "res3b12_branch2c"
  batch_norm_param {
    use_global_stats: true
  }
}
layer {
  name: "scale3b12_branch2c"
  type: "Scale"
  bottom: "res3b12_branch2c"
  top: "res3b12_branch2c"
  scale_param {
    bias_term: true
  }
}
layer {
  name: "res3b12"
  type: "Eltwise"
  bottom: "res3b11"
  bottom: "res3b12_branch2c"
  top: "res3b12"
}
layer {
  name: "res3b12_relu"
  type: "ReLU"
  bottom: "res3b12"
  top: "res3b12"
}
layer {
  name: "res3b13_branch2a"
  type: "Convolution"
  bottom: "res3b12"
  top: "res3b13_branch2a"
  convolution_param {
    num_output: 128
    bias_term: false
    pad: 0
    kernel_size: 1
    stride: 1
  }
}
layer {
  name: "bn3b13_branch2a"
  type: "BatchNorm"
  bottom: "res3b13_branch2a"
  top: "res3b13_branch2a"
  batch_norm_param {
    use_global_stats: true
  }
}
layer {
  name: "scale3b13_branch2a"
  type: "Scale"
  bottom: "res3b13_branch2a"
  top: "res3b13_branch2a"
  scale_param {
    bias_term: true
  }
}
layer {
  name: "res3b13_branch2a_relu"
  type: "ReLU"
  bottom: "res3b13_branch2a"
  top: "res3b13_branch2a"
}
layer {
  name: "res3b13_branch2b"
  type: "Convolution"
  bottom: "res3b13_branch2a"
  top: "res3b13_branch2b"
  convolution_param {
    num_output: 128
    bias_term: false
    pad: 1
    kernel_size: 3
    stride: 1
  }
}
layer {
  name: "bn3b13_branch2b"
  type: "BatchNorm"
  bottom: "res3b13_branch2b"
  top: "res3b13_branch2b"
  batch_norm_param {
    use_global_stats: true
  }
}
layer {
  name: "scale3b13_branch2b"
  type: "Scale"
  bottom: "res3b13_branch2b"
  top: "res3b13_branch2b"
  scale_param {
    bias_term: true
  }
}
layer {
  name: "res3b13_branch2b_relu"
  type: "ReLU"
  bottom: "res3b13_branch2b"
  top: "res3b13_branch2b"
}
layer {
  name: "res3b13_branch2c"
  type: "Convolution"
  bottom: "res3b13_branch2b"
  top: "res3b13_branch2c"
  convolution_param {
    num_output: 512
    bias_term: false
    pad: 0
    kernel_size: 1
    stride: 1
  }
}
layer {
  name: "bn3b13_branch2c"
  type: "BatchNorm"
  bottom: "res3b13_branch2c"
  top: "res3b13_branch2c"
  batch_norm_param {
    use_global_stats: true
  }
}
layer {
  name: "scale3b13_branch2c"
  type: "Scale"
  bottom: "res3b13_branch2c"
  top: "res3b13_branch2c"
  scale_param {
    bias_term: true
  }
}
layer {
  name: "res3b13"
  type: "Eltwise"
  bottom: "res3b12"
  bottom: "res3b13_branch2c"
  top: "res3b13"
}
layer {
  name: "res3b13_relu"
  type: "ReLU"
  bottom: "res3b13"
  top: "res3b13"
}
layer {
  name: "res3b14_branch2a"
  type: "Convolution"
  bottom: "res3b13"
  top: "res3b14_branch2a"
  convolution_param {
    num_output: 128
    bias_term: false
    pad: 0
    kernel_size: 1
    stride: 1
  }
}
layer {
  name: "bn3b14_branch2a"
  type: "BatchNorm"
  bottom: "res3b14_branch2a"
  top: "res3b14_branch2a"
  batch_norm_param {
    use_global_stats: true
  }
}
layer {
  name: "scale3b14_branch2a"
  type: "Scale"
  bottom: "res3b14_branch2a"
  top: "res3b14_branch2a"
  scale_param {
    bias_term: true
  }
}
layer {
  name: "res3b14_branch2a_relu"
  type: "ReLU"
  bottom: "res3b14_branch2a"
  top: "res3b14_branch2a"
}
layer {
  name: "res3b14_branch2b"
  type: "Convolution"
  bottom: "res3b14_branch2a"
  top: "res3b14_branch2b"
  convolution_param {
    num_output: 128
    bias_term: false
    pad: 1
    kernel_size: 3
    stride: 1
  }
}
layer {
  name: "bn3b14_branch2b"
  type: "BatchNorm"
  bottom: "res3b14_branch2b"
  top: "res3b14_branch2b"
  batch_norm_param {
    use_global_stats: true
  }
}
layer {
  name: "scale3b14_branch2b"
  type: "Scale"
  bottom: "res3b14_branch2b"
  top: "res3b14_branch2b"
  scale_param {
    bias_term: true
  }
}
layer {
  name: "res3b14_branch2b_relu"
  type: "ReLU"
  bottom: "res3b14_branch2b"
  top: "res3b14_branch2b"
}
layer {
  name: "res3b14_branch2c"
  type: "Convolution"
  bottom: "res3b14_branch2b"
  top: "res3b14_branch2c"
  convolution_param {
    num_output: 512
    bias_term: false
    pad: 0
    kernel_size: 1
    stride: 1
  }
}
layer {
  name: "bn3b14_branch2c"
  type: "BatchNorm"
  bottom: "res3b14_branch2c"
  top: "res3b14_branch2c"
  batch_norm_param {
    use_global_stats: true
  }
}
layer {
  name: "scale3b14_branch2c"
  type: "Scale"
  bottom: "res3b14_branch2c"
  top: "res3b14_branch2c"
  scale_param {
    bias_term: true
  }
}
layer {
  name: "res3b14"
  type: "Eltwise"
  bottom: "res3b13"
  bottom: "res3b14_branch2c"
  top: "res3b14"
}
layer {
  name: "res3b14_relu"
  type: "ReLU"
  bottom: "res3b14"
  top: "res3b14"
}
layer {
  name: "res3b15_branch2a"
  type: "Convolution"
  bottom: "res3b14"
  top: "res3b15_branch2a"
  convolution_param {
    num_output: 128
    bias_term: false
    pad: 0
    kernel_size: 1
    stride: 1
  }
}
layer {
  name: "bn3b15_branch2a"
  type: "BatchNorm"
  bottom: "res3b15_branch2a"
  top: "res3b15_branch2a"
  batch_norm_param {
    use_global_stats: true
  }
}
layer {
  name: "scale3b15_branch2a"
  type: "Scale"
  bottom: "res3b15_branch2a"
  top: "res3b15_branch2a"
  scale_param {
    bias_term: true
  }
}
layer {
  name: "res3b15_branch2a_relu"
  type: "ReLU"
  bottom: "res3b15_branch2a"
  top: "res3b15_branch2a"
}
layer {
  name: "res3b15_branch2b"
  type: "Convolution"
  bottom: "res3b15_branch2a"
  top: "res3b15_branch2b"
  convolution_param {
    num_output: 128
    bias_term: false
    pad: 1
    kernel_size: 3
    stride: 1
  }
}
layer {
  name: "bn3b15_branch2b"
  type: "BatchNorm"
  bottom: "res3b15_branch2b"
  top: "res3b15_branch2b"
  batch_norm_param {
    use_global_stats: true
  }
}
layer {
  name: "scale3b15_branch2b"
  type: "Scale"
  bottom: "res3b15_branch2b"
  top: "res3b15_branch2b"
  scale_param {
    bias_term: true
  }
}
layer {
  name: "res3b15_branch2b_relu"
  type: "ReLU"
  bottom: "res3b15_branch2b"
  top: "res3b15_branch2b"
}
layer {
  name: "res3b15_branch2c"
  type: "Convolution"
  bottom: "res3b15_branch2b"
  top: "res3b15_branch2c"
  convolution_param {
    num_output: 512
    bias_term: false
    pad: 0
    kernel_size: 1
    stride: 1
  }
}
layer {
  name: "bn3b15_branch2c"
  type: "BatchNorm"
  bottom: "res3b15_branch2c"
  top: "res3b15_branch2c"
  batch_norm_param {
    use_global_stats: true
  }
}
layer {
  name: "scale3b15_branch2c"
  type: "Scale"
  bottom: "res3b15_branch2c"
  top: "res3b15_branch2c"
  scale_param {
    bias_term: true
  }
}
layer {
  name: "res3b15"
  type: "Eltwise"
  bottom: "res3b14"
  bottom: "res3b15_branch2c"
  top: "res3b15"
}
layer {
  name: "res3b15_relu"
  type: "ReLU"
  bottom: "res3b15"
  top: "res3b15"
}
layer {
  name: "res3b16_branch2a"
  type: "Convolution"
  bottom: "res3b15"
  top: "res3b16_branch2a"
  convolution_param {
    num_output: 128
    bias_term: false
    pad: 0
    kernel_size: 1
    stride: 1
  }
}
layer {
  name: "bn3b16_branch2a"
  type: "BatchNorm"
  bottom: "res3b16_branch2a"
  top: "res3b16_branch2a"
  batch_norm_param {
    use_global_stats: true
  }
}
layer {
  name: "scale3b16_branch2a"
  type: "Scale"
  bottom: "res3b16_branch2a"
  top: "res3b16_branch2a"
  scale_param {
    bias_term: true
  }
}
layer {
  name: "res3b16_branch2a_relu"
  type: "ReLU"
  bottom: "res3b16_branch2a"
  top: "res3b16_branch2a"
}
layer {
  name: "res3b16_branch2b"
  type: "Convolution"
  bottom: "res3b16_branch2a"
  top: "res3b16_branch2b"
  convolution_param {
    num_output: 128
    bias_term: false
    pad: 1
    kernel_size: 3
    stride: 1
  }
}
layer {
  name: "bn3b16_branch2b"
  type: "BatchNorm"
  bottom: "res3b16_branch2b"
  top: "res3b16_branch2b"
  batch_norm_param {
    use_global_stats: true
  }
}
layer {
  name: "scale3b16_branch2b"
  type: "Scale"
  bottom: "res3b16_branch2b"
  top: "res3b16_branch2b"
  scale_param {
    bias_term: true
  }
}
layer {
  name: "res3b16_branch2b_relu"
  type: "ReLU"
  bottom: "res3b16_branch2b"
  top: "res3b16_branch2b"
}
layer {
  name: "res3b16_branch2c"
  type: "Convolution"
  bottom: "res3b16_branch2b"
  top: "res3b16_branch2c"
  convolution_param {
    num_output: 512
    bias_term: false
    pad: 0
    kernel_size: 1
    stride: 1
  }
}
layer {
  name: "bn3b16_branch2c"
  type: "BatchNorm"
  bottom: "res3b16_branch2c"
  top: "res3b16_branch2c"
  batch_norm_param {
    use_global_stats: true
  }
}
layer {
  name: "scale3b16_branch2c"
  type: "Scale"
  bottom: "res3b16_branch2c"
  top: "res3b16_branch2c"
  scale_param {
    bias_term: true
  }
}
layer {
  name: "res3b16"
  type: "Eltwise"
  bottom: "res3b15"
  bottom: "res3b16_branch2c"
  top: "res3b16"
}
layer {
  name: "res3b16_relu"
  type: "ReLU"
  bottom: "res3b16"
  top: "res3b16"
}
layer {
  name: "res3b17_branch2a"
  type: "Convolution"
  bottom: "res3b16"
  top: "res3b17_branch2a"
  convolution_param {
    num_output: 128
    bias_term: false
    pad: 0
    kernel_size: 1
    stride: 1
  }
}
layer {
  name: "bn3b17_branch2a"
  type: "BatchNorm"
  bottom: "res3b17_branch2a"
  top: "res3b17_branch2a"
  batch_norm_param {
    use_global_stats: true
  }
}
layer {
  name: "scale3b17_branch2a"
  type: "Scale"
  bottom: "res3b17_branch2a"
  top: "res3b17_branch2a"
  scale_param {
    bias_term: true
  }
}
layer {
  name: "res3b17_branch2a_relu"
  type: "ReLU"
  bottom: "res3b17_branch2a"
  top: "res3b17_branch2a"
}
layer {
  name: "res3b17_branch2b"
  type: "Convolution"
  bottom: "res3b17_branch2a"
  top: "res3b17_branch2b"
  convolution_param {
    num_output: 128
    bias_term: false
    pad: 1
    kernel_size: 3
    stride: 1
  }
}
layer {
  name: "bn3b17_branch2b"
  type: "BatchNorm"
  bottom: "res3b17_branch2b"
  top: "res3b17_branch2b"
  batch_norm_param {
    use_global_stats: true
  }
}
layer {
  name: "scale3b17_branch2b"
  type: "Scale"
  bottom: "res3b17_branch2b"
  top: "res3b17_branch2b"
  scale_param {
    bias_term: true
  }
}
layer {
  name: "res3b17_branch2b_relu"
  type: "ReLU"
  bottom: "res3b17_branch2b"
  top: "res3b17_branch2b"
}
layer {
  name: "res3b17_branch2c"
  type: "Convolution"
  bottom: "res3b17_branch2b"
  top: "res3b17_branch2c"
  convolution_param {
    num_output: 512
    bias_term: false
    pad: 0
    kernel_size: 1
    stride: 1
  }
}
layer {
  name: "bn3b17_branch2c"
  type: "BatchNorm"
  bottom: "res3b17_branch2c"
  top: "res3b17_branch2c"
  batch_norm_param {
    use_global_stats: true
  }
}
layer {
  name: "scale3b17_branch2c"
  type: "Scale"
  bottom: "res3b17_branch2c"
  top: "res3b17_branch2c"
  scale_param {
    bias_term: true
  }
}
layer {
  name: "res3b17"
  type: "Eltwise"
  bottom: "res3b16"
  bottom: "res3b17_branch2c"
  top: "res3b17"
}
layer {
  name: "res3b17_relu"
  type: "ReLU"
  bottom: "res3b17"
  top: "res3b17"
}
layer {
  name: "res3b18_branch2a"
  type: "Convolution"
  bottom: "res3b17"
  top: "res3b18_branch2a"
  convolution_param {
    num_output: 128
    bias_term: false
    pad: 0
    kernel_size: 1
    stride: 1
  }
}
layer {
  name: "bn3b18_branch2a"
  type: "BatchNorm"
  bottom: "res3b18_branch2a"
  top: "res3b18_branch2a"
  batch_norm_param {
    use_global_stats: true
  }
}
layer {
  name: "scale3b18_branch2a"
  type: "Scale"
  bottom: "res3b18_branch2a"
  top: "res3b18_branch2a"
  scale_param {
    bias_term: true
  }
}
layer {
  name: "res3b18_branch2a_relu"
  type: "ReLU"
  bottom: "res3b18_branch2a"
  top: "res3b18_branch2a"
}
layer {
  name: "res3b18_branch2b"
  type: "Convolution"
  bottom: "res3b18_branch2a"
  top: "res3b18_branch2b"
  convolution_param {
    num_output: 128
    bias_term: false
    pad: 1
    kernel_size: 3
    stride: 1
  }
}
layer {
  name: "bn3b18_branch2b"
  type: "BatchNorm"
  bottom: "res3b18_branch2b"
  top: "res3b18_branch2b"
  batch_norm_param {
    use_global_stats: true
  }
}
layer {
  name: "scale3b18_branch2b"
  type: "Scale"
  bottom: "res3b18_branch2b"
  top: "res3b18_branch2b"
  scale_param {
    bias_term: true
  }
}
layer {
  name: "res3b18_branch2b_relu"
  type: "ReLU"
  bottom: "res3b18_branch2b"
  top: "res3b18_branch2b"
}
layer {
  name: "res3b18_branch2c"
  type: "Convolution"
  bottom: "res3b18_branch2b"
  top: "res3b18_branch2c"
  convolution_param {
    num_output: 512
    bias_term: false
    pad: 0
    kernel_size: 1
    stride: 1
  }
}
layer {
  name: "bn3b18_branch2c"
  type: "BatchNorm"
  bottom: "res3b18_branch2c"
  top: "res3b18_branch2c"
  batch_norm_param {
    use_global_stats: true
  }
}
layer {
  name: "scale3b18_branch2c"
  type: "Scale"
  bottom: "res3b18_branch2c"
  top: "res3b18_branch2c"
  scale_param {
    bias_term: true
  }
}
layer {
  name: "res3b18"
  type: "Eltwise"
  bottom: "res3b17"
  bottom: "res3b18_branch2c"
  top: "res3b18"
}
layer {
  name: "res3b18_relu"
  type: "ReLU"
  bottom: "res3b18"
  top: "res3b18"
}
layer {
  name: "res3b19_branch2a"
  type: "Convolution"
  bottom: "res3b18"
  top: "res3b19_branch2a"
  convolution_param {
    num_output: 128
    bias_term: false
    pad: 0
    kernel_size: 1
    stride: 1
  }
}
layer {
  name: "bn3b19_branch2a"
  type: "BatchNorm"
  bottom: "res3b19_branch2a"
  top: "res3b19_branch2a"
  batch_norm_param {
    use_global_stats: true
  }
}
layer {
  name: "scale3b19_branch2a"
  type: "Scale"
  bottom: "res3b19_branch2a"
  top: "res3b19_branch2a"
  scale_param {
    bias_term: true
  }
}
layer {
  name: "res3b19_branch2a_relu"
  type: "ReLU"
  bottom: "res3b19_branch2a"
  top: "res3b19_branch2a"
}
layer {
  name: "res3b19_branch2b"
  type: "Convolution"
  bottom: "res3b19_branch2a"
  top: "res3b19_branch2b"
  convolution_param {
    num_output: 128
    bias_term: false
    pad: 1
    kernel_size: 3
    stride: 1
  }
}
layer {
  name: "bn3b19_branch2b"
  type: "BatchNorm"
  bottom: "res3b19_branch2b"
  top: "res3b19_branch2b"
  batch_norm_param {
    use_global_stats: true
  }
}
layer {
  name: "scale3b19_branch2b"
  type: "Scale"
  bottom: "res3b19_branch2b"
  top: "res3b19_branch2b"
  scale_param {
    bias_term: true
  }
}
layer {
  name: "res3b19_branch2b_relu"
  type: "ReLU"
  bottom: "res3b19_branch2b"
  top: "res3b19_branch2b"
}
layer {
  name: "res3b19_branch2c"
  type: "Convolution"
  bottom: "res3b19_branch2b"
  top: "res3b19_branch2c"
  convolution_param {
    num_output: 512
    bias_term: false
    pad: 0
    kernel_size: 1
    stride: 1
  }
}
layer {
  name: "bn3b19_branch2c"
  type: "BatchNorm"
  bottom: "res3b19_branch2c"
  top: "res3b19_branch2c"
  batch_norm_param {
    use_global_stats: true
  }
}
layer {
  name: "scale3b19_branch2c"
  type: "Scale"
  bottom: "res3b19_branch2c"
  top: "res3b19_branch2c"
  scale_param {
    bias_term: true
  }
}
layer {
  name: "res3b19"
  type: "Eltwise"
  bottom: "res3b18"
  bottom: "res3b19_branch2c"
  top: "res3b19"
}
layer {
  name: "res3b19_relu"
  type: "ReLU"
  bottom: "res3b19"
  top: "res3b19"
}
layer {
  name: "res3b20_branch2a"
  type: "Convolution"
  bottom: "res3b19"
  top: "res3b20_branch2a"
  convolution_param {
    num_output: 128
    bias_term: false
    pad: 0
    kernel_size: 1
    stride: 1
  }
}
layer {
  name: "bn3b20_branch2a"
  type: "BatchNorm"
  bottom: "res3b20_branch2a"
  top: "res3b20_branch2a"
  batch_norm_param {
    use_global_stats: true
  }
}
layer {
  name: "scale3b20_branch2a"
  type: "Scale"
  bottom: "res3b20_branch2a"
  top: "res3b20_branch2a"
  scale_param {
    bias_term: true
  }
}
layer {
  name: "res3b20_branch2a_relu"
  type: "ReLU"
  bottom: "res3b20_branch2a"
  top: "res3b20_branch2a"
}
layer {
  name: "res3b20_branch2b"
  type: "Convolution"
  bottom: "res3b20_branch2a"
  top: "res3b20_branch2b"
  convolution_param {
    num_output: 128
    bias_term: false
    pad: 1
    kernel_size: 3
    stride: 1
  }
}
layer {
  name: "bn3b20_branch2b"
  type: "BatchNorm"
  bottom: "res3b20_branch2b"
  top: "res3b20_branch2b"
  batch_norm_param {
    use_global_stats: true
  }
}
layer {
  name: "scale3b20_branch2b"
  type: "Scale"
  bottom: "res3b20_branch2b"
  top: "res3b20_branch2b"
  scale_param {
    bias_term: true
  }
}
layer {
  name: "res3b20_branch2b_relu"
  type: "ReLU"
  bottom: "res3b20_branch2b"
  top: "res3b20_branch2b"
}
layer {
  name: "res3b20_branch2c"
  type: "Convolution"
  bottom: "res3b20_branch2b"
  top: "res3b20_branch2c"
  convolution_param {
    num_output: 512
    bias_term: false
    pad: 0
    kernel_size: 1
    stride: 1
  }
}
layer {
  name: "bn3b20_branch2c"
  type: "BatchNorm"
  bottom: "res3b20_branch2c"
  top: "res3b20_branch2c"
  batch_norm_param {
    use_global_stats: true
  }
}
layer {
  name: "scale3b20_branch2c"
  type: "Scale"
  bottom: "res3b20_branch2c"
  top: "res3b20_branch2c"
  scale_param {
    bias_term: true
  }
}
layer {
  name: "res3b20"
  type: "Eltwise"
  bottom: "res3b19"
  bottom: "res3b20_branch2c"
  top: "res3b20"
}
layer {
  name: "res3b20_relu"
  type: "ReLU"
  bottom: "res3b20"
  top: "res3b20"
}
layer {
  name: "res3b21_branch2a"
  type: "Convolution"
  bottom: "res3b20"
  top: "res3b21_branch2a"
  convolution_param {
    num_output: 128
    bias_term: false
    pad: 0
    kernel_size: 1
    stride: 1
  }
}
layer {
  name: "bn3b21_branch2a"
  type: "BatchNorm"
  bottom: "res3b21_branch2a"
  top: "res3b21_branch2a"
  batch_norm_param {
    use_global_stats: true
  }
}
layer {
  name: "scale3b21_branch2a"
  type: "Scale"
  bottom: "res3b21_branch2a"
  top: "res3b21_branch2a"
  scale_param {
    bias_term: true
  }
}
layer {
  name: "res3b21_branch2a_relu"
  type: "ReLU"
  bottom: "res3b21_branch2a"
  top: "res3b21_branch2a"
}
layer {
  name: "res3b21_branch2b"
  type: "Convolution"
  bottom: "res3b21_branch2a"
  top: "res3b21_branch2b"
  convolution_param {
    num_output: 128
    bias_term: false
    pad: 1
    kernel_size: 3
    stride: 1
  }
}
layer {
  name: "bn3b21_branch2b"
  type: "BatchNorm"
  bottom: "res3b21_branch2b"
  top: "res3b21_branch2b"
  batch_norm_param {
    use_global_stats: true
  }
}
layer {
  name: "scale3b21_branch2b"
  type: "Scale"
  bottom: "res3b21_branch2b"
  top: "res3b21_branch2b"
  scale_param {
    bias_term: true
  }
}
layer {
  name: "res3b21_branch2b_relu"
  type: "ReLU"
  bottom: "res3b21_branch2b"
  top: "res3b21_branch2b"
}
layer {
  name: "res3b21_branch2c"
  type: "Convolution"
  bottom: "res3b21_branch2b"
  top: "res3b21_branch2c"
  convolution_param {
    num_output: 512
    bias_term: false
    pad: 0
    kernel_size: 1
    stride: 1
  }
}
layer {
  name: "bn3b21_branch2c"
  type: "BatchNorm"
  bottom: "res3b21_branch2c"
  top: "res3b21_branch2c"
  batch_norm_param {
    use_global_stats: true
  }
}
layer {
  name: "scale3b21_branch2c"
  type: "Scale"
  bottom: "res3b21_branch2c"
  top: "res3b21_branch2c"
  scale_param {
    bias_term: true
  }
}
layer {
  name: "res3b21"
  type: "Eltwise"
  bottom: "res3b20"
  bottom: "res3b21_branch2c"
  top: "res3b21"
}
layer {
  name: "res3b21_relu"
  type: "ReLU"
  bottom: "res3b21"
  top: "res3b21"
}
layer {
  name: "res3b22_branch2a"
  type: "Convolution"
  bottom: "res3b21"
  top: "res3b22_branch2a"
  convolution_param {
    num_output: 128
    bias_term: false
    pad: 0
    kernel_size: 1
    stride: 1
  }
}
layer {
  name: "bn3b22_branch2a"
  type: "BatchNorm"
  bottom: "res3b22_branch2a"
  top: "res3b22_branch2a"
  batch_norm_param {
    use_global_stats: true
  }
}
layer {
  name: "scale3b22_branch2a"
  type: "Scale"
  bottom: "res3b22_branch2a"
  top: "res3b22_branch2a"
  scale_param {
    bias_term: true
  }
}
layer {
  name: "res3b22_branch2a_relu"
  type: "ReLU"
  bottom: "res3b22_branch2a"
  top: "res3b22_branch2a"
}
layer {
  name: "res3b22_branch2b"
  type: "Convolution"
  bottom: "res3b22_branch2a"
  top: "res3b22_branch2b"
  convolution_param {
    num_output: 128
    bias_term: false
    pad: 1
    kernel_size: 3
    stride: 1
  }
}
layer {
  name: "bn3b22_branch2b"
  type: "BatchNorm"
  bottom: "res3b22_branch2b"
  top: "res3b22_branch2b"
  batch_norm_param {
    use_global_stats: true
  }
}
layer {
  name: "scale3b22_branch2b"
  type: "Scale"
  bottom: "res3b22_branch2b"
  top: "res3b22_branch2b"
  scale_param {
    bias_term: true
  }
}
layer {
  name: "res3b22_branch2b_relu"
  type: "ReLU"
  bottom: "res3b22_branch2b"
  top: "res3b22_branch2b"
}
layer {
  name: "res3b22_branch2c"
  type: "Convolution"
  bottom: "res3b22_branch2b"
  top: "res3b22_branch2c"
  convolution_param {
    num_output: 512
    bias_term: false
    pad: 0
    kernel_size: 1
    stride: 1
  }
}
layer {
  name: "bn3b22_branch2c"
  type: "BatchNorm"
  bottom: "res3b22_branch2c"
  top: "res3b22_branch2c"
  batch_norm_param {
    use_global_stats: true
  }
}
layer {
  name: "scale3b22_branch2c"
  type: "Scale"
  bottom: "res3b22_branch2c"
  top: "res3b22_branch2c"
  scale_param {
    bias_term: true
  }
}
layer {
  name: "res3b22"
  type: "Eltwise"
  bottom: "res3b21"
  bottom: "res3b22_branch2c"
  top: "res3b22"
}
layer {
  name: "res3b22_relu"
  type: "ReLU"
  bottom: "res3b22"
  top: "res3b22"
}
layer {
  name: "res3b23_branch2a"
  type: "Convolution"
  bottom: "res3b22"
  top: "res3b23_branch2a"
  convolution_param {
    num_output: 128
    bias_term: false
    pad: 0
    kernel_size: 1
    stride: 1
  }
}
layer {
  name: "bn3b23_branch2a"
  type: "BatchNorm"
  bottom: "res3b23_branch2a"
  top: "res3b23_branch2a"
  batch_norm_param {
    use_global_stats: true
  }
}
layer {
  name: "scale3b23_branch2a"
  type: "Scale"
  bottom: "res3b23_branch2a"
  top: "res3b23_branch2a"
  scale_param {
    bias_term: true
  }
}
layer {
  name: "res3b23_branch2a_relu"
  type: "ReLU"
  bottom: "res3b23_branch2a"
  top: "res3b23_branch2a"
}
layer {
  name: "res3b23_branch2b"
  type: "Convolution"
  bottom: "res3b23_branch2a"
  top: "res3b23_branch2b"
  convolution_param {
    num_output: 128
    bias_term: false
    pad: 1
    kernel_size: 3
    stride: 1
  }
}
layer {
  name: "bn3b23_branch2b"
  type: "BatchNorm"
  bottom: "res3b23_branch2b"
  top: "res3b23_branch2b"
  batch_norm_param {
    use_global_stats: true
  }
}
layer {
  name: "scale3b23_branch2b"
  type: "Scale"
  bottom: "res3b23_branch2b"
  top: "res3b23_branch2b"
  scale_param {
    bias_term: true
  }
}
layer {
  name: "res3b23_branch2b_relu"
  type: "ReLU"
  bottom: "res3b23_branch2b"
  top: "res3b23_branch2b"
}
layer {
  name: "res3b23_branch2c"
  type: "Convolution"
  bottom: "res3b23_branch2b"
  top: "res3b23_branch2c"
  convolution_param {
    num_output: 512
    bias_term: false
    pad: 0
    kernel_size: 1
    stride: 1
  }
}
layer {
  name: "bn3b23_branch2c"
  type: "BatchNorm"
  bottom: "res3b23_branch2c"
  top: "res3b23_branch2c"
  batch_norm_param {
    use_global_stats: true
  }
}
layer {
  name: "scale3b23_branch2c"
  type: "Scale"
  bottom: "res3b23_branch2c"
  top: "res3b23_branch2c"
  scale_param {
    bias_term: true
  }
}
layer {
  name: "res3b23"
  type: "Eltwise"
  bottom: "res3b22"
  bottom: "res3b23_branch2c"
  top: "res3b23"
}
layer {
  name: "res3b23_relu"
  type: "ReLU"
  bottom: "res3b23"
  top: "res3b23"
}
layer {
  name: "res3b24_branch2a"
  type: "Convolution"
  bottom: "res3b23"
  top: "res3b24_branch2a"
  convolution_param {
    num_output: 128
    bias_term: false
    pad: 0
    kernel_size: 1
    stride: 1
  }
}
layer {
  name: "bn3b24_branch2a"
  type: "BatchNorm"
  bottom: "res3b24_branch2a"
  top: "res3b24_branch2a"
  batch_norm_param {
    use_global_stats: true
  }
}
layer {
  name: "scale3b24_branch2a"
  type: "Scale"
  bottom: "res3b24_branch2a"
  top: "res3b24_branch2a"
  scale_param {
    bias_term: true
  }
}
layer {
  name: "res3b24_branch2a_relu"
  type: "ReLU"
  bottom: "res3b24_branch2a"
  top: "res3b24_branch2a"
}
layer {
  name: "res3b24_branch2b"
  type: "Convolution"
  bottom: "res3b24_branch2a"
  top: "res3b24_branch2b"
  convolution_param {
    num_output: 128
    bias_term: false
    pad: 1
    kernel_size: 3
    stride: 1
  }
}
layer {
  name: "bn3b24_branch2b"
  type: "BatchNorm"
  bottom: "res3b24_branch2b"
  top: "res3b24_branch2b"
  batch_norm_param {
    use_global_stats: true
  }
}
layer {
  name: "scale3b24_branch2b"
  type: "Scale"
  bottom: "res3b24_branch2b"
  top: "res3b24_branch2b"
  scale_param {
    bias_term: true
  }
}
layer {
  name: "res3b24_branch2b_relu"
  type: "ReLU"
  bottom: "res3b24_branch2b"
  top: "res3b24_branch2b"
}
layer {
  name: "res3b24_branch2c"
  type: "Convolution"
  bottom: "res3b24_branch2b"
  top: "res3b24_branch2c"
  convolution_param {
    num_output: 512
    bias_term: false
    pad: 0
    kernel_size: 1
    stride: 1
  }
}
layer {
  name: "bn3b24_branch2c"
  type: "BatchNorm"
  bottom: "res3b24_branch2c"
  top: "res3b24_branch2c"
  batch_norm_param {
    use_global_stats: true
  }
}
layer {
  name: "scale3b24_branch2c"
  type: "Scale"
  bottom: "res3b24_branch2c"
  top: "res3b24_branch2c"
  scale_param {
    bias_term: true
  }
}
layer {
  name: "res3b24"
  type: "Eltwise"
  bottom: "res3b23"
  bottom: "res3b24_branch2c"
  top: "res3b24"
}
layer {
  name: "res3b24_relu"
  type: "ReLU"
  bottom: "res3b24"
  top: "res3b24"
}
layer {
  name: "res3b25_branch2a"
  type: "Convolution"
  bottom: "res3b24"
  top: "res3b25_branch2a"
  convolution_param {
    num_output: 128
    bias_term: false
    pad: 0
    kernel_size: 1
    stride: 1
  }
}
layer {
  name: "bn3b25_branch2a"
  type: "BatchNorm"
  bottom: "res3b25_branch2a"
  top: "res3b25_branch2a"
  batch_norm_param {
    use_global_stats: true
  }
}
layer {
  name: "scale3b25_branch2a"
  type: "Scale"
  bottom: "res3b25_branch2a"
  top: "res3b25_branch2a"
  scale_param {
    bias_term: true
  }
}
layer {
  name: "res3b25_branch2a_relu"
  type: "ReLU"
  bottom: "res3b25_branch2a"
  top: "res3b25_branch2a"
}
layer {
  name: "res3b25_branch2b"
  type: "Convolution"
  bottom: "res3b25_branch2a"
  top: "res3b25_branch2b"
  convolution_param {
    num_output: 128
    bias_term: false
    pad: 1
    kernel_size: 3
    stride: 1
  }
}
layer {
  name: "bn3b25_branch2b"
  type: "BatchNorm"
  bottom: "res3b25_branch2b"
  top: "res3b25_branch2b"
  batch_norm_param {
    use_global_stats: true
  }
}
layer {
  name: "scale3b25_branch2b"
  type: "Scale"
  bottom: "res3b25_branch2b"
  top: "res3b25_branch2b"
  scale_param {
    bias_term: true
  }
}
layer {
  name: "res3b25_branch2b_relu"
  type: "ReLU"
  bottom: "res3b25_branch2b"
  top: "res3b25_branch2b"
}
layer {
  name: "res3b25_branch2c"
  type: "Convolution"
  bottom: "res3b25_branch2b"
  top: "res3b25_branch2c"
  convolution_param {
    num_output: 512
    bias_term: false
    pad: 0
    kernel_size: 1
    stride: 1
  }
}
layer {
  name: "bn3b25_branch2c"
  type: "BatchNorm"
  bottom: "res3b25_branch2c"
  top: "res3b25_branch2c"
  batch_norm_param {
    use_global_stats: true
  }
}
layer {
  name: "scale3b25_branch2c"
  type: "Scale"
  bottom: "res3b25_branch2c"
  top: "res3b25_branch2c"
  scale_param {
    bias_term: true
  }
}
layer {
  name: "res3b25"
  type: "Eltwise"
  bottom: "res3b24"
  bottom: "res3b25_branch2c"
  top: "res3b25"
}
layer {
  name: "res3b25_relu"
  type: "ReLU"
  bottom: "res3b25"
  top: "res3b25"
}
layer {
  name: "res3b26_branch2a"
  type: "Convolution"
  bottom: "res3b25"
  top: "res3b26_branch2a"
  convolution_param {
    num_output: 128
    bias_term: false
    pad: 0
    kernel_size: 1
    stride: 1
  }
}
layer {
  name: "bn3b26_branch2a"
  type: "BatchNorm"
  bottom: "res3b26_branch2a"
  top: "res3b26_branch2a"
  batch_norm_param {
    use_global_stats: true
  }
}
layer {
  name: "scale3b26_branch2a"
  type: "Scale"
  bottom: "res3b26_branch2a"
  top: "res3b26_branch2a"
  scale_param {
    bias_term: true
  }
}
layer {
  name: "res3b26_branch2a_relu"
  type: "ReLU"
  bottom: "res3b26_branch2a"
  top: "res3b26_branch2a"
}
layer {
  name: "res3b26_branch2b"
  type: "Convolution"
  bottom: "res3b26_branch2a"
  top: "res3b26_branch2b"
  convolution_param {
    num_output: 128
    bias_term: false
    pad: 1
    kernel_size: 3
    stride: 1
  }
}
layer {
  name: "bn3b26_branch2b"
  type: "BatchNorm"
  bottom: "res3b26_branch2b"
  top: "res3b26_branch2b"
  batch_norm_param {
    use_global_stats: true
  }
}
layer {
  name: "scale3b26_branch2b"
  type: "Scale"
  bottom: "res3b26_branch2b"
  top: "res3b26_branch2b"
  scale_param {
    bias_term: true
  }
}
layer {
  name: "res3b26_branch2b_relu"
  type: "ReLU"
  bottom: "res3b26_branch2b"
  top: "res3b26_branch2b"
}
layer {
  name: "res3b26_branch2c"
  type: "Convolution"
  bottom: "res3b26_branch2b"
  top: "res3b26_branch2c"
  convolution_param {
    num_output: 512
    bias_term: false
    pad: 0
    kernel_size: 1
    stride: 1
  }
}
layer {
  name: "bn3b26_branch2c"
  type: "BatchNorm"
  bottom: "res3b26_branch2c"
  top: "res3b26_branch2c"
  batch_norm_param {
    use_global_stats: true
  }
}
layer {
  name: "scale3b26_branch2c"
  type: "Scale"
  bottom: "res3b26_branch2c"
  top: "res3b26_branch2c"
  scale_param {
    bias_term: true
  }
}
layer {
  name: "res3b26"
  type: "Eltwise"
  bottom: "res3b25"
  bottom: "res3b26_branch2c"
  top: "res3b26"
}
layer {
  name: "res3b26_relu"
  type: "ReLU"
  bottom: "res3b26"
  top: "res3b26"
}
layer {
  name: "res3b27_branch2a"
  type: "Convolution"
  bottom: "res3b26"
  top: "res3b27_branch2a"
  convolution_param {
    num_output: 128
    bias_term: false
    pad: 0
    kernel_size: 1
    stride: 1
  }
}
layer {
  name: "bn3b27_branch2a"
  type: "BatchNorm"
  bottom: "res3b27_branch2a"
  top: "res3b27_branch2a"
  batch_norm_param {
    use_global_stats: true
  }
}
layer {
  name: "scale3b27_branch2a"
  type: "Scale"
  bottom: "res3b27_branch2a"
  top: "res3b27_branch2a"
  scale_param {
    bias_term: true
  }
}
layer {
  name: "res3b27_branch2a_relu"
  type: "ReLU"
  bottom: "res3b27_branch2a"
  top: "res3b27_branch2a"
}
layer {
  name: "res3b27_branch2b"
  type: "Convolution"
  bottom: "res3b27_branch2a"
  top: "res3b27_branch2b"
  convolution_param {
    num_output: 128
    bias_term: false
    pad: 1
    kernel_size: 3
    stride: 1
  }
}
layer {
  name: "bn3b27_branch2b"
  type: "BatchNorm"
  bottom: "res3b27_branch2b"
  top: "res3b27_branch2b"
  batch_norm_param {
    use_global_stats: true
  }
}
layer {
  name: "scale3b27_branch2b"
  type: "Scale"
  bottom: "res3b27_branch2b"
  top: "res3b27_branch2b"
  scale_param {
    bias_term: true
  }
}
layer {
  name: "res3b27_branch2b_relu"
  type: "ReLU"
  bottom: "res3b27_branch2b"
  top: "res3b27_branch2b"
}
layer {
  name: "res3b27_branch2c"
  type: "Convolution"
  bottom: "res3b27_branch2b"
  top: "res3b27_branch2c"
  convolution_param {
    num_output: 512
    bias_term: false
    pad: 0
    kernel_size: 1
    stride: 1
  }
}
layer {
  name: "bn3b27_branch2c"
  type: "BatchNorm"
  bottom: "res3b27_branch2c"
  top: "res3b27_branch2c"
  batch_norm_param {
    use_global_stats: true
  }
}
layer {
  name: "scale3b27_branch2c"
  type: "Scale"
  bottom: "res3b27_branch2c"
  top: "res3b27_branch2c"
  scale_param {
    bias_term: true
  }
}
layer {
  name: "res3b27"
  type: "Eltwise"
  bottom: "res3b26"
  bottom: "res3b27_branch2c"
  top: "res3b27"
}
layer {
  name: "res3b27_relu"
  type: "ReLU"
  bottom: "res3b27"
  top: "res3b27"
}
layer {
  name: "res3b28_branch2a"
  type: "Convolution"
  bottom: "res3b27"
  top: "res3b28_branch2a"
  convolution_param {
    num_output: 128
    bias_term: false
    pad: 0
    kernel_size: 1
    stride: 1
  }
}
layer {
  name: "bn3b28_branch2a"
  type: "BatchNorm"
  bottom: "res3b28_branch2a"
  top: "res3b28_branch2a"
  batch_norm_param {
    use_global_stats: true
  }
}
layer {
  name: "scale3b28_branch2a"
  type: "Scale"
  bottom: "res3b28_branch2a"
  top: "res3b28_branch2a"
  scale_param {
    bias_term: true
  }
}
layer {
  name: "res3b28_branch2a_relu"
  type: "ReLU"
  bottom: "res3b28_branch2a"
  top: "res3b28_branch2a"
}
layer {
  name: "res3b28_branch2b"
  type: "Convolution"
  bottom: "res3b28_branch2a"
  top: "res3b28_branch2b"
  convolution_param {
    num_output: 128
    bias_term: false
    pad: 1
    kernel_size: 3
    stride: 1
  }
}
layer {
  name: "bn3b28_branch2b"
  type: "BatchNorm"
  bottom: "res3b28_branch2b"
  top: "res3b28_branch2b"
  batch_norm_param {
    use_global_stats: true
  }
}
layer {
  name: "scale3b28_branch2b"
  type: "Scale"
  bottom: "res3b28_branch2b"
  top: "res3b28_branch2b"
  scale_param {
    bias_term: true
  }
}
layer {
  name: "res3b28_branch2b_relu"
  type: "ReLU"
  bottom: "res3b28_branch2b"
  top: "res3b28_branch2b"
}
layer {
  name: "res3b28_branch2c"
  type: "Convolution"
  bottom: "res3b28_branch2b"
  top: "res3b28_branch2c"
  convolution_param {
    num_output: 512
    bias_term: false
    pad: 0
    kernel_size: 1
    stride: 1
  }
}
layer {
  name: "bn3b28_branch2c"
  type: "BatchNorm"
  bottom: "res3b28_branch2c"
  top: "res3b28_branch2c"
  batch_norm_param {
    use_global_stats: true
  }
}
layer {
  name: "scale3b28_branch2c"
  type: "Scale"
  bottom: "res3b28_branch2c"
  top: "res3b28_branch2c"
  scale_param {
    bias_term: true
  }
}
layer {
  name: "res3b28"
  type: "Eltwise"
  bottom: "res3b27"
  bottom: "res3b28_branch2c"
  top: "res3b28"
}
layer {
  name: "res3b28_relu"
  type: "ReLU"
  bottom: "res3b28"
  top: "res3b28"
}
layer {
  name: "res3b29_branch2a"
  type: "Convolution"
  bottom: "res3b28"
  top: "res3b29_branch2a"
  convolution_param {
    num_output: 128
    bias_term: false
    pad: 0
    kernel_size: 1
    stride: 1
  }
}
layer {
  name: "bn3b29_branch2a"
  type: "BatchNorm"
  bottom: "res3b29_branch2a"
  top: "res3b29_branch2a"
  batch_norm_param {
    use_global_stats: true
  }
}
layer {
  name: "scale3b29_branch2a"
  type: "Scale"
  bottom: "res3b29_branch2a"
  top: "res3b29_branch2a"
  scale_param {
    bias_term: true
  }
}
layer {
  name: "res3b29_branch2a_relu"
  type: "ReLU"
  bottom: "res3b29_branch2a"
  top: "res3b29_branch2a"
}
layer {
  name: "res3b29_branch2b"
  type: "Convolution"
  bottom: "res3b29_branch2a"
  top: "res3b29_branch2b"
  convolution_param {
    num_output: 128
    bias_term: false
    pad: 1
    kernel_size: 3
    stride: 1
  }
}
layer {
  name: "bn3b29_branch2b"
  type: "BatchNorm"
  bottom: "res3b29_branch2b"
  top: "res3b29_branch2b"
  batch_norm_param {
    use_global_stats: true
  }
}
layer {
  name: "scale3b29_branch2b"
  type: "Scale"
  bottom: "res3b29_branch2b"
  top: "res3b29_branch2b"
  scale_param {
    bias_term: true
  }
}
layer {
  name: "res3b29_branch2b_relu"
  type: "ReLU"
  bottom: "res3b29_branch2b"
  top: "res3b29_branch2b"
}
layer {
  name: "res3b29_branch2c"
  type: "Convolution"
  bottom: "res3b29_branch2b"
  top: "res3b29_branch2c"
  convolution_param {
    num_output: 512
    bias_term: false
    pad: 0
    kernel_size: 1
    stride: 1
  }
}
layer {
  name: "bn3b29_branch2c"
  type: "BatchNorm"
  bottom: "res3b29_branch2c"
  top: "res3b29_branch2c"
  batch_norm_param {
    use_global_stats: true
  }
}
layer {
  name: "scale3b29_branch2c"
  type: "Scale"
  bottom: "res3b29_branch2c"
  top: "res3b29_branch2c"
  scale_param {
    bias_term: true
  }
}
layer {
  name: "res3b29"
  type: "Eltwise"
  bottom: "res3b28"
  bottom: "res3b29_branch2c"
  top: "res3b29"
}
layer {
  name: "res3b29_relu"
  type: "ReLU"
  bottom: "res3b29"
  top: "res3b29"
}
layer {
  name: "res4a_branch1"
  type: "Convolution"
  bottom: "res3b29"
  top: "res4a_branch1"
  convolution_param {
    num_output: 1024
    bias_term: false
    pad: 0
    kernel_size: 1
    stride: 2
  }
}
layer {
  name: "bn4a_branch1"
  type: "BatchNorm"
  bottom: "res4a_branch1"
  top: "res4a_branch1"
  batch_norm_param {
    use_global_stats: true
  }
}
layer {
  name: "scale4a_branch1"
  type: "Scale"
  bottom: "res4a_branch1"
  top: "res4a_branch1"
  scale_param {
    bias_term: true
  }
}
layer {
  name: "res4a_branch2a"
  type: "Convolution"
  bottom: "res3b29"
  top: "res4a_branch2a"
  convolution_param {
    num_output: 256
    bias_term: false
    pad: 0
    kernel_size: 1
    stride: 2
  }
}
layer {
  name: "bn4a_branch2a"
  type: "BatchNorm"
  bottom: "res4a_branch2a"
  top: "res4a_branch2a"
  batch_norm_param {
    use_global_stats: true
  }
}
layer {
  name: "scale4a_branch2a"
  type: "Scale"
  bottom: "res4a_branch2a"
  top: "res4a_branch2a"
  scale_param {
    bias_term: true
  }
}
layer {
  name: "res4a_branch2a_relu"
  type: "ReLU"
  bottom: "res4a_branch2a"
  top: "res4a_branch2a"
}
layer {
  name: "res4a_branch2b"
  type: "Convolution"
  bottom: "res4a_branch2a"
  top: "res4a_branch2b"
  convolution_param {
    num_output: 256
    bias_term: false
    pad: 1
    kernel_size: 3
    stride: 1
  }
}
layer {
  name: "bn4a_branch2b"
  type: "BatchNorm"
  bottom: "res4a_branch2b"
  top: "res4a_branch2b"
  batch_norm_param {
    use_global_stats: true
  }
}
layer {
  name: "scale4a_branch2b"
  type: "Scale"
  bottom: "res4a_branch2b"
  top: "res4a_branch2b"
  scale_param {
    bias_term: true
  }
}
layer {
  name: "res4a_branch2b_relu"
  type: "ReLU"
  bottom: "res4a_branch2b"
  top: "res4a_branch2b"
}
layer {
  name: "res4a_branch2c"
  type: "Convolution"
  bottom: "res4a_branch2b"
  top: "res4a_branch2c"
  convolution_param {
    num_output: 1024
    bias_term: false
    pad: 0
    kernel_size: 1
    stride: 1
  }
}
layer {
  name: "bn4a_branch2c"
  type: "BatchNorm"
  bottom: "res4a_branch2c"
  top: "res4a_branch2c"
  batch_norm_param {
    use_global_stats: true
  }
}
layer {
  name: "scale4a_branch2c"
  type: "Scale"
  bottom: "res4a_branch2c"
  top: "res4a_branch2c"
  scale_param {
    bias_term: true
  }
}
layer {
  name: "res4a"
  type: "Eltwise"
  bottom: "res4a_branch1"
  bottom: "res4a_branch2c"
  top: "res4a"
}
layer {
  name: "res4a_relu"
  type: "ReLU"
  bottom: "res4a"
  top: "res4a"
}
layer {
  name: "res4b1_branch2a"
  type: "Convolution"
  bottom: "res4a"
  top: "res4b1_branch2a"
  convolution_param {
    num_output: 256
    bias_term: false
    pad: 0
    kernel_size: 1
    stride: 1
  }
}
layer {
  name: "bn4b1_branch2a"
  type: "BatchNorm"
  bottom: "res4b1_branch2a"
  top: "res4b1_branch2a"
  batch_norm_param {
    use_global_stats: true
  }
}
layer {
  name: "scale4b1_branch2a"
  type: "Scale"
  bottom: "res4b1_branch2a"
  top: "res4b1_branch2a"
  scale_param {
    bias_term: true
  }
}
layer {
  name: "res4b1_branch2a_relu"
  type: "ReLU"
  bottom: "res4b1_branch2a"
  top: "res4b1_branch2a"
}
layer {
  name: "res4b1_branch2b"
  type: "Convolution"
  bottom: "res4b1_branch2a"
  top: "res4b1_branch2b"
  convolution_param {
    num_output: 256
    bias_term: false
    pad: 1
    kernel_size: 3
    stride: 1
  }
}
layer {
  name: "bn4b1_branch2b"
  type: "BatchNorm"
  bottom: "res4b1_branch2b"
  top: "res4b1_branch2b"
  batch_norm_param {
    use_global_stats: true
  }
}
layer {
  name: "scale4b1_branch2b"
  type: "Scale"
  bottom: "res4b1_branch2b"
  top: "res4b1_branch2b"
  scale_param {
    bias_term: true
  }
}
layer {
  name: "res4b1_branch2b_relu"
  type: "ReLU"
  bottom: "res4b1_branch2b"
  top: "res4b1_branch2b"
}
layer {
  name: "res4b1_branch2c"
  type: "Convolution"
  bottom: "res4b1_branch2b"
  top: "res4b1_branch2c"
  convolution_param {
    num_output: 1024
    bias_term: false
    pad: 0
    kernel_size: 1
    stride: 1
  }
}
layer {
  name: "bn4b1_branch2c"
  type: "BatchNorm"
  bottom: "res4b1_branch2c"
  top: "res4b1_branch2c"
  batch_norm_param {
    use_global_stats: true
  }
}
layer {
  name: "scale4b1_branch2c"
  type: "Scale"
  bottom: "res4b1_branch2c"
  top: "res4b1_branch2c"
  scale_param {
    bias_term: true
  }
}
layer {
  name: "res4b1"
  type: "Eltwise"
  bottom: "res4a"
  bottom: "res4b1_branch2c"
  top: "res4b1"
}
layer {
  name: "res4b1_relu"
  type: "ReLU"
  bottom: "res4b1"
  top: "res4b1"
}
layer {
  name: "res4b2_branch2a"
  type: "Convolution"
  bottom: "res4b1"
  top: "res4b2_branch2a"
  convolution_param {
    num_output: 256
    bias_term: false
    pad: 0
    kernel_size: 1
    stride: 1
  }
}
layer {
  name: "bn4b2_branch2a"
  type: "BatchNorm"
  bottom: "res4b2_branch2a"
  top: "res4b2_branch2a"
  batch_norm_param {
    use_global_stats: true
  }
}
layer {
  name: "scale4b2_branch2a"
  type: "Scale"
  bottom: "res4b2_branch2a"
  top: "res4b2_branch2a"
  scale_param {
    bias_term: true
  }
}
layer {
  name: "res4b2_branch2a_relu"
  type: "ReLU"
  bottom: "res4b2_branch2a"
  top: "res4b2_branch2a"
}
layer {
  name: "res4b2_branch2b"
  type: "Convolution"
  bottom: "res4b2_branch2a"
  top: "res4b2_branch2b"
  convolution_param {
    num_output: 256
    bias_term: false
    pad: 1
    kernel_size: 3
    stride: 1
  }
}
layer {
  name: "bn4b2_branch2b"
  type: "BatchNorm"
  bottom: "res4b2_branch2b"
  top: "res4b2_branch2b"
  batch_norm_param {
    use_global_stats: true
  }
}
layer {
  name: "scale4b2_branch2b"
  type: "Scale"
  bottom: "res4b2_branch2b"
  top: "res4b2_branch2b"
  scale_param {
    bias_term: true
  }
}
layer {
  name: "res4b2_branch2b_relu"
  type: "ReLU"
  bottom: "res4b2_branch2b"
  top: "res4b2_branch2b"
}
layer {
  name: "res4b2_branch2c"
  type: "Convolution"
  bottom: "res4b2_branch2b"
  top: "res4b2_branch2c"
  convolution_param {
    num_output: 1024
    bias_term: false
    pad: 0
    kernel_size: 1
    stride: 1
  }
}
layer {
  name: "bn4b2_branch2c"
  type: "BatchNorm"
  bottom: "res4b2_branch2c"
  top: "res4b2_branch2c"
  batch_norm_param {
    use_global_stats: true
  }
}
layer {
  name: "scale4b2_branch2c"
  type: "Scale"
  bottom: "res4b2_branch2c"
  top: "res4b2_branch2c"
  scale_param {
    bias_term: true
  }
}
layer {
  name: "res4b2"
  type: "Eltwise"
  bottom: "res4b1"
  bottom: "res4b2_branch2c"
  top: "res4b2"
}
layer {
  name: "res4b2_relu"
  type: "ReLU"
  bottom: "res4b2"
  top: "res4b2"
}
layer {
  name: "res4b3_branch2a"
  type: "Convolution"
  bottom: "res4b2"
  top: "res4b3_branch2a"
  convolution_param {
    num_output: 256
    bias_term: false
    pad: 0
    kernel_size: 1
    stride: 1
  }
}
layer {
  name: "bn4b3_branch2a"
  type: "BatchNorm"
  bottom: "res4b3_branch2a"
  top: "res4b3_branch2a"
  batch_norm_param {
    use_global_stats: true
  }
}
layer {
  name: "scale4b3_branch2a"
  type: "Scale"
  bottom: "res4b3_branch2a"
  top: "res4b3_branch2a"
  scale_param {
    bias_term: true
  }
}
layer {
  name: "res4b3_branch2a_relu"
  type: "ReLU"
  bottom: "res4b3_branch2a"
  top: "res4b3_branch2a"
}
layer {
  name: "res4b3_branch2b"
  type: "Convolution"
  bottom: "res4b3_branch2a"
  top: "res4b3_branch2b"
  convolution_param {
    num_output: 256
    bias_term: false
    pad: 1
    kernel_size: 3
    stride: 1
  }
}
layer {
  name: "bn4b3_branch2b"
  type: "BatchNorm"
  bottom: "res4b3_branch2b"
  top: "res4b3_branch2b"
  batch_norm_param {
    use_global_stats: true
  }
}
layer {
  name: "scale4b3_branch2b"
  type: "Scale"
  bottom: "res4b3_branch2b"
  top: "res4b3_branch2b"
  scale_param {
    bias_term: true
  }
}
layer {
  name: "res4b3_branch2b_relu"
  type: "ReLU"
  bottom: "res4b3_branch2b"
  top: "res4b3_branch2b"
}
layer {
  name: "res4b3_branch2c"
  type: "Convolution"
  bottom: "res4b3_branch2b"
  top: "res4b3_branch2c"
  convolution_param {
    num_output: 1024
    bias_term: false
    pad: 0
    kernel_size: 1
    stride: 1
  }
}
layer {
  name: "bn4b3_branch2c"
  type: "BatchNorm"
  bottom: "res4b3_branch2c"
  top: "res4b3_branch2c"
  batch_norm_param {
    use_global_stats: true
  }
}
layer {
  name: "scale4b3_branch2c"
  type: "Scale"
  bottom: "res4b3_branch2c"
  top: "res4b3_branch2c"
  scale_param {
    bias_term: true
  }
}
layer {
  name: "res4b3"
  type: "Eltwise"
  bottom: "res4b2"
  bottom: "res4b3_branch2c"
  top: "res4b3"
}
layer {
  name: "res4b3_relu"
  type: "ReLU"
  bottom: "res4b3"
  top: "res4b3"
}
layer {
  name: "res4b4_branch2a"
  type: "Convolution"
  bottom: "res4b3"
  top: "res4b4_branch2a"
  convolution_param {
    num_output: 256
    bias_term: false
    pad: 0
    kernel_size: 1
    stride: 1
  }
}
layer {
  name: "bn4b4_branch2a"
  type: "BatchNorm"
  bottom: "res4b4_branch2a"
  top: "res4b4_branch2a"
  batch_norm_param {
    use_global_stats: true
  }
}
layer {
  name: "scale4b4_branch2a"
  type: "Scale"
  bottom: "res4b4_branch2a"
  top: "res4b4_branch2a"
  scale_param {
    bias_term: true
  }
}
layer {
  name: "res4b4_branch2a_relu"
  type: "ReLU"
  bottom: "res4b4_branch2a"
  top: "res4b4_branch2a"
}
layer {
  name: "res4b4_branch2b"
  type: "Convolution"
  bottom: "res4b4_branch2a"
  top: "res4b4_branch2b"
  convolution_param {
    num_output: 256
    bias_term: false
    pad: 1
    kernel_size: 3
    stride: 1
  }
}
layer {
  name: "bn4b4_branch2b"
  type: "BatchNorm"
  bottom: "res4b4_branch2b"
  top: "res4b4_branch2b"
  batch_norm_param {
    use_global_stats: true
  }
}
layer {
  name: "scale4b4_branch2b"
  type: "Scale"
  bottom: "res4b4_branch2b"
  top: "res4b4_branch2b"
  scale_param {
    bias_term: true
  }
}
layer {
  name: "res4b4_branch2b_relu"
  type: "ReLU"
  bottom: "res4b4_branch2b"
  top: "res4b4_branch2b"
}
layer {
  name: "res4b4_branch2c"
  type: "Convolution"
  bottom: "res4b4_branch2b"
  top: "res4b4_branch2c"
  convolution_param {
    num_output: 1024
    bias_term: false
    pad: 0
    kernel_size: 1
    stride: 1
  }
}
layer {
  name: "bn4b4_branch2c"
  type: "BatchNorm"
  bottom: "res4b4_branch2c"
  top: "res4b4_branch2c"
  batch_norm_param {
    use_global_stats: true
  }
}
layer {
  name: "scale4b4_branch2c"
  type: "Scale"
  bottom: "res4b4_branch2c"
  top: "res4b4_branch2c"
  scale_param {
    bias_term: true
  }
}
layer {
  name: "res4b4"
  type: "Eltwise"
  bottom: "res4b3"
  bottom: "res4b4_branch2c"
  top: "res4b4"
}
layer {
  name: "res4b4_relu"
  type: "ReLU"
  bottom: "res4b4"
  top: "res4b4"
}
layer {
  name: "res4b5_branch2a"
  type: "Convolution"
  bottom: "res4b4"
  top: "res4b5_branch2a"
  convolution_param {
    num_output: 256
    bias_term: false
    pad: 0
    kernel_size: 1
    stride: 1
  }
}
layer {
  name: "bn4b5_branch2a"
  type: "BatchNorm"
  bottom: "res4b5_branch2a"
  top: "res4b5_branch2a"
  batch_norm_param {
    use_global_stats: true
  }
}
layer {
  name: "scale4b5_branch2a"
  type: "Scale"
  bottom: "res4b5_branch2a"
  top: "res4b5_branch2a"
  scale_param {
    bias_term: true
  }
}
layer {
  name: "res4b5_branch2a_relu"
  type: "ReLU"
  bottom: "res4b5_branch2a"
  top: "res4b5_branch2a"
}
layer {
  name: "res4b5_branch2b"
  type: "Convolution"
  bottom: "res4b5_branch2a"
  top: "res4b5_branch2b"
  convolution_param {
    num_output: 256
    bias_term: false
    pad: 1
    kernel_size: 3
    stride: 1
  }
}
layer {
  name: "bn4b5_branch2b"
  type: "BatchNorm"
  bottom: "res4b5_branch2b"
  top: "res4b5_branch2b"
  batch_norm_param {
    use_global_stats: true
  }
}
layer {
  name: "scale4b5_branch2b"
  type: "Scale"
  bottom: "res4b5_branch2b"
  top: "res4b5_branch2b"
  scale_param {
    bias_term: true
  }
}
layer {
  name: "res4b5_branch2b_relu"
  type: "ReLU"
  bottom: "res4b5_branch2b"
  top: "res4b5_branch2b"
}
layer {
  name: "res4b5_branch2c"
  type: "Convolution"
  bottom: "res4b5_branch2b"
  top: "res4b5_branch2c"
  convolution_param {
    num_output: 1024
    bias_term: false
    pad: 0
    kernel_size: 1
    stride: 1
  }
}
layer {
  name: "bn4b5_branch2c"
  type: "BatchNorm"
  bottom: "res4b5_branch2c"
  top: "res4b5_branch2c"
  batch_norm_param {
    use_global_stats: true
  }
}
layer {
  name: "scale4b5_branch2c"
  type: "Scale"
  bottom: "res4b5_branch2c"
  top: "res4b5_branch2c"
  scale_param {
    bias_term: true
  }
}
layer {
  name: "res4b5"
  type: "Eltwise"
  bottom: "res4b4"
  bottom: "res4b5_branch2c"
  top: "res4b5"
}
layer {
  name: "res4b5_relu"
  type: "ReLU"
  bottom: "res4b5"
  top: "res4b5"
}
layer {
  name: "res4b6_branch2a"
  type: "Convolution"
  bottom: "res4b5"
  top: "res4b6_branch2a"
  convolution_param {
    num_output: 256
    bias_term: false
    pad: 0
    kernel_size: 1
    stride: 1
  }
}
layer {
  name: "bn4b6_branch2a"
  type: "BatchNorm"
  bottom: "res4b6_branch2a"
  top: "res4b6_branch2a"
  batch_norm_param {
    use_global_stats: true
  }
}
layer {
  name: "scale4b6_branch2a"
  type: "Scale"
  bottom: "res4b6_branch2a"
  top: "res4b6_branch2a"
  scale_param {
    bias_term: true
  }
}
layer {
  name: "res4b6_branch2a_relu"
  type: "ReLU"
  bottom: "res4b6_branch2a"
  top: "res4b6_branch2a"
}
layer {
  name: "res4b6_branch2b"
  type: "Convolution"
  bottom: "res4b6_branch2a"
  top: "res4b6_branch2b"
  convolution_param {
    num_output: 256
    bias_term: false
    pad: 1
    kernel_size: 3
    stride: 1
  }
}
layer {
  name: "bn4b6_branch2b"
  type: "BatchNorm"
  bottom: "res4b6_branch2b"
  top: "res4b6_branch2b"
  batch_norm_param {
    use_global_stats: true
  }
}
layer {
  name: "scale4b6_branch2b"
  type: "Scale"
  bottom: "res4b6_branch2b"
  top: "res4b6_branch2b"
  scale_param {
    bias_term: true
  }
}
layer {
  name: "res4b6_branch2b_relu"
  type: "ReLU"
  bottom: "res4b6_branch2b"
  top: "res4b6_branch2b"
}
layer {
  name: "res4b6_branch2c"
  type: "Convolution"
  bottom: "res4b6_branch2b"
  top: "res4b6_branch2c"
  convolution_param {
    num_output: 1024
    bias_term: false
    pad: 0
    kernel_size: 1
    stride: 1
  }
}
layer {
  name: "bn4b6_branch2c"
  type: "BatchNorm"
  bottom: "res4b6_branch2c"
  top: "res4b6_branch2c"
  batch_norm_param {
    use_global_stats: true
  }
}
layer {
  name: "scale4b6_branch2c"
  type: "Scale"
  bottom: "res4b6_branch2c"
  top: "res4b6_branch2c"
  scale_param {
    bias_term: true
  }
}
layer {
  name: "res4b6"
  type: "Eltwise"
  bottom: "res4b5"
  bottom: "res4b6_branch2c"
  top: "res4b6"
}
layer {
  name: "res4b6_relu"
  type: "ReLU"
  bottom: "res4b6"
  top: "res4b6"
}
layer {
  name: "res4b7_branch2a"
  type: "Convolution"
  bottom: "res4b6"
  top: "res4b7_branch2a"
  convolution_param {
    num_output: 256
    bias_term: false
    pad: 0
    kernel_size: 1
    stride: 1
  }
}
layer {
  name: "bn4b7_branch2a"
  type: "BatchNorm"
  bottom: "res4b7_branch2a"
  top: "res4b7_branch2a"
  batch_norm_param {
    use_global_stats: true
  }
}
layer {
  name: "scale4b7_branch2a"
  type: "Scale"
  bottom: "res4b7_branch2a"
  top: "res4b7_branch2a"
  scale_param {
    bias_term: true
  }
}
layer {
  name: "res4b7_branch2a_relu"
  type: "ReLU"
  bottom: "res4b7_branch2a"
  top: "res4b7_branch2a"
}
layer {
  name: "res4b7_branch2b"
  type: "Convolution"
  bottom: "res4b7_branch2a"
  top: "res4b7_branch2b"
  convolution_param {
    num_output: 256
    bias_term: false
    pad: 1
    kernel_size: 3
    stride: 1
  }
}
layer {
  name: "bn4b7_branch2b"
  type: "BatchNorm"
  bottom: "res4b7_branch2b"
  top: "res4b7_branch2b"
  batch_norm_param {
    use_global_stats: true
  }
}
layer {
  name: "scale4b7_branch2b"
  type: "Scale"
  bottom: "res4b7_branch2b"
  top: "res4b7_branch2b"
  scale_param {
    bias_term: true
  }
}
layer {
  name: "res4b7_branch2b_relu"
  type: "ReLU"
  bottom: "res4b7_branch2b"
  top: "res4b7_branch2b"
}
layer {
  name: "res4b7_branch2c"
  type: "Convolution"
  bottom: "res4b7_branch2b"
  top: "res4b7_branch2c"
  convolution_param {
    num_output: 1024
    bias_term: false
    pad: 0
    kernel_size: 1
    stride: 1
  }
}
layer {
  name: "bn4b7_branch2c"
  type: "BatchNorm"
  bottom: "res4b7_branch2c"
  top: "res4b7_branch2c"
  batch_norm_param {
    use_global_stats: true
  }
}
layer {
  name: "scale4b7_branch2c"
  type: "Scale"
  bottom: "res4b7_branch2c"
  top: "res4b7_branch2c"
  scale_param {
    bias_term: true
  }
}
layer {
  name: "res4b7"
  type: "Eltwise"
  bottom: "res4b6"
  bottom: "res4b7_branch2c"
  top: "res4b7"
}
layer {
  name: "res4b7_relu"
  type: "ReLU"
  bottom: "res4b7"
  top: "res4b7"
}
layer {
  name: "res4b8_branch2a"
  type: "Convolution"
  bottom: "res4b7"
  top: "res4b8_branch2a"
  convolution_param {
    num_output: 256
    bias_term: false
    pad: 0
    kernel_size: 1
    stride: 1
  }
}
layer {
  name: "bn4b8_branch2a"
  type: "BatchNorm"
  bottom: "res4b8_branch2a"
  top: "res4b8_branch2a"
  batch_norm_param {
    use_global_stats: true
  }
}
layer {
  name: "scale4b8_branch2a"
  type: "Scale"
  bottom: "res4b8_branch2a"
  top: "res4b8_branch2a"
  scale_param {
    bias_term: true
  }
}
layer {
  name: "res4b8_branch2a_relu"
  type: "ReLU"
  bottom: "res4b8_branch2a"
  top: "res4b8_branch2a"
}
layer {
  name: "res4b8_branch2b"
  type: "Convolution"
  bottom: "res4b8_branch2a"
  top: "res4b8_branch2b"
  convolution_param {
    num_output: 256
    bias_term: false
    pad: 1
    kernel_size: 3
    stride: 1
  }
}
layer {
  name: "bn4b8_branch2b"
  type: "BatchNorm"
  bottom: "res4b8_branch2b"
  top: "res4b8_branch2b"
  batch_norm_param {
    use_global_stats: true
  }
}
layer {
  name: "scale4b8_branch2b"
  type: "Scale"
  bottom: "res4b8_branch2b"
  top: "res4b8_branch2b"
  scale_param {
    bias_term: true
  }
}
layer {
  name: "res4b8_branch2b_relu"
  type: "ReLU"
  bottom: "res4b8_branch2b"
  top: "res4b8_branch2b"
}
layer {
  name: "res4b8_branch2c"
  type: "Convolution"
  bottom: "res4b8_branch2b"
  top: "res4b8_branch2c"
  convolution_param {
    num_output: 1024
    bias_term: false
    pad: 0
    kernel_size: 1
    stride: 1
  }
}
layer {
  name: "bn4b8_branch2c"
  type: "BatchNorm"
  bottom: "res4b8_branch2c"
  top: "res4b8_branch2c"
  batch_norm_param {
    use_global_stats: true
  }
}
layer {
  name: "scale4b8_branch2c"
  type: "Scale"
  bottom: "res4b8_branch2c"
  top: "res4b8_branch2c"
  scale_param {
    bias_term: true
  }
}
layer {
  name: "res4b8"
  type: "Eltwise"
  bottom: "res4b7"
  bottom: "res4b8_branch2c"
  top: "res4b8"
}
layer {
  name: "res4b8_relu"
  type: "ReLU"
  bottom: "res4b8"
  top: "res4b8"
}
layer {
  name: "res4b9_branch2a"
  type: "Convolution"
  bottom: "res4b8"
  top: "res4b9_branch2a"
  convolution_param {
    num_output: 256
    bias_term: false
    pad: 0
    kernel_size: 1
    stride: 1
  }
}
layer {
  name: "bn4b9_branch2a"
  type: "BatchNorm"
  bottom: "res4b9_branch2a"
  top: "res4b9_branch2a"
  batch_norm_param {
    use_global_stats: true
  }
}
layer {
  name: "scale4b9_branch2a"
  type: "Scale"
  bottom: "res4b9_branch2a"
  top: "res4b9_branch2a"
  scale_param {
    bias_term: true
  }
}
layer {
  name: "res4b9_branch2a_relu"
  type: "ReLU"
  bottom: "res4b9_branch2a"
  top: "res4b9_branch2a"
}
layer {
  name: "res4b9_branch2b"
  type: "Convolution"
  bottom: "res4b9_branch2a"
  top: "res4b9_branch2b"
  convolution_param {
    num_output: 256
    bias_term: false
    pad: 1
    kernel_size: 3
    stride: 1
  }
}
layer {
  name: "bn4b9_branch2b"
  type: "BatchNorm"
  bottom: "res4b9_branch2b"
  top: "res4b9_branch2b"
  batch_norm_param {
    use_global_stats: true
  }
}
layer {
  name: "scale4b9_branch2b"
  type: "Scale"
  bottom: "res4b9_branch2b"
  top: "res4b9_branch2b"
  scale_param {
    bias_term: true
  }
}
layer {
  name: "res4b9_branch2b_relu"
  type: "ReLU"
  bottom: "res4b9_branch2b"
  top: "res4b9_branch2b"
}
layer {
  name: "res4b9_branch2c"
  type: "Convolution"
  bottom: "res4b9_branch2b"
  top: "res4b9_branch2c"
  convolution_param {
    num_output: 1024
    bias_term: false
    pad: 0
    kernel_size: 1
    stride: 1
  }
}
layer {
  name: "bn4b9_branch2c"
  type: "BatchNorm"
  bottom: "res4b9_branch2c"
  top: "res4b9_branch2c"
  batch_norm_param {
    use_global_stats: true
  }
}
layer {
  name: "scale4b9_branch2c"
  type: "Scale"
  bottom: "res4b9_branch2c"
  top: "res4b9_branch2c"
  scale_param {
    bias_term: true
  }
}
layer {
  name: "res4b9"
  type: "Eltwise"
  bottom: "res4b8"
  bottom: "res4b9_branch2c"
  top: "res4b9"
}
layer {
  name: "res4b9_relu"
  type: "ReLU"
  bottom: "res4b9"
  top: "res4b9"
}
layer {
  name: "res4b10_branch2a"
  type: "Convolution"
  bottom: "res4b9"
  top: "res4b10_branch2a"
  convolution_param {
    num_output: 256
    bias_term: false
    pad: 0
    kernel_size: 1
    stride: 1
  }
}
layer {
  name: "bn4b10_branch2a"
  type: "BatchNorm"
  bottom: "res4b10_branch2a"
  top: "res4b10_branch2a"
  batch_norm_param {
    use_global_stats: true
  }
}
layer {
  name: "scale4b10_branch2a"
  type: "Scale"
  bottom: "res4b10_branch2a"
  top: "res4b10_branch2a"
  scale_param {
    bias_term: true
  }
}
layer {
  name: "res4b10_branch2a_relu"
  type: "ReLU"
  bottom: "res4b10_branch2a"
  top: "res4b10_branch2a"
}
layer {
  name: "res4b10_branch2b"
  type: "Convolution"
  bottom: "res4b10_branch2a"
  top: "res4b10_branch2b"
  convolution_param {
    num_output: 256
    bias_term: false
    pad: 1
    kernel_size: 3
    stride: 1
  }
}
layer {
  name: "bn4b10_branch2b"
  type: "BatchNorm"
  bottom: "res4b10_branch2b"
  top: "res4b10_branch2b"
  batch_norm_param {
    use_global_stats: true
  }
}
layer {
  name: "scale4b10_branch2b"
  type: "Scale"
  bottom: "res4b10_branch2b"
  top: "res4b10_branch2b"
  scale_param {
    bias_term: true
  }
}
layer {
  name: "res4b10_branch2b_relu"
  type: "ReLU"
  bottom: "res4b10_branch2b"
  top: "res4b10_branch2b"
}
layer {
  name: "res4b10_branch2c"
  type: "Convolution"
  bottom: "res4b10_branch2b"
  top: "res4b10_branch2c"
  convolution_param {
    num_output: 1024
    bias_term: false
    pad: 0
    kernel_size: 1
    stride: 1
  }
}
layer {
  name: "bn4b10_branch2c"
  type: "BatchNorm"
  bottom: "res4b10_branch2c"
  top: "res4b10_branch2c"
  batch_norm_param {
    use_global_stats: true
  }
}
layer {
  name: "scale4b10_branch2c"
  type: "Scale"
  bottom: "res4b10_branch2c"
  top: "res4b10_branch2c"
  scale_param {
    bias_term: true
  }
}
layer {
  name: "res4b10"
  type: "Eltwise"
  bottom: "res4b9"
  bottom: "res4b10_branch2c"
  top: "res4b10"
}
layer {
  name: "res4b10_relu"
  type: "ReLU"
  bottom: "res4b10"
  top: "res4b10"
}
layer {
  name: "res4b11_branch2a"
  type: "Convolution"
  bottom: "res4b10"
  top: "res4b11_branch2a"
  convolution_param {
    num_output: 256
    bias_term: false
    pad: 0
    kernel_size: 1
    stride: 1
  }
}
layer {
  name: "bn4b11_branch2a"
  type: "BatchNorm"
  bottom: "res4b11_branch2a"
  top: "res4b11_branch2a"
  batch_norm_param {
    use_global_stats: true
  }
}
layer {
  name: "scale4b11_branch2a"
  type: "Scale"
  bottom: "res4b11_branch2a"
  top: "res4b11_branch2a"
  scale_param {
    bias_term: true
  }
}
layer {
  name: "res4b11_branch2a_relu"
  type: "ReLU"
  bottom: "res4b11_branch2a"
  top: "res4b11_branch2a"
}
layer {
  name: "res4b11_branch2b"
  type: "Convolution"
  bottom: "res4b11_branch2a"
  top: "res4b11_branch2b"
  convolution_param {
    num_output: 256
    bias_term: false
    pad: 1
    kernel_size: 3
    stride: 1
  }
}
layer {
  name: "bn4b11_branch2b"
  type: "BatchNorm"
  bottom: "res4b11_branch2b"
  top: "res4b11_branch2b"
  batch_norm_param {
    use_global_stats: true
  }
}
layer {
  name: "scale4b11_branch2b"
  type: "Scale"
  bottom: "res4b11_branch2b"
  top: "res4b11_branch2b"
  scale_param {
    bias_term: true
  }
}
layer {
  name: "res4b11_branch2b_relu"
  type: "ReLU"
  bottom: "res4b11_branch2b"
  top: "res4b11_branch2b"
}
layer {
  name: "res4b11_branch2c"
  type: "Convolution"
  bottom: "res4b11_branch2b"
  top: "res4b11_branch2c"
  convolution_param {
    num_output: 1024
    bias_term: false
    pad: 0
    kernel_size: 1
    stride: 1
  }
}
layer {
  name: "bn4b11_branch2c"
  type: "BatchNorm"
  bottom: "res4b11_branch2c"
  top: "res4b11_branch2c"
  batch_norm_param {
    use_global_stats: true
  }
}
layer {
  name: "scale4b11_branch2c"
  type: "Scale"
  bottom: "res4b11_branch2c"
  top: "res4b11_branch2c"
  scale_param {
    bias_term: true
  }
}
layer {
  name: "res4b11"
  type: "Eltwise"
  bottom: "res4b10"
  bottom: "res4b11_branch2c"
  top: "res4b11"
}
layer {
  name: "res4b11_relu"
  type: "ReLU"
  bottom: "res4b11"
  top: "res4b11"
}
layer {
  name: "res4b12_branch2a"
  type: "Convolution"
  bottom: "res4b11"
  top: "res4b12_branch2a"
  convolution_param {
    num_output: 256
    bias_term: false
    pad: 0
    kernel_size: 1
    stride: 1
  }
}
layer {
  name: "bn4b12_branch2a"
  type: "BatchNorm"
  bottom: "res4b12_branch2a"
  top: "res4b12_branch2a"
  batch_norm_param {
    use_global_stats: true
  }
}
layer {
  name: "scale4b12_branch2a"
  type: "Scale"
  bottom: "res4b12_branch2a"
  top: "res4b12_branch2a"
  scale_param {
    bias_term: true
  }
}
layer {
  name: "res4b12_branch2a_relu"
  type: "ReLU"
  bottom: "res4b12_branch2a"
  top: "res4b12_branch2a"
}
layer {
  name: "res4b12_branch2b"
  type: "Convolution"
  bottom: "res4b12_branch2a"
  top: "res4b12_branch2b"
  convolution_param {
    num_output: 256
    bias_term: false
    pad: 1
    kernel_size: 3
    stride: 1
  }
}
layer {
  name: "bn4b12_branch2b"
  type: "BatchNorm"
  bottom: "res4b12_branch2b"
  top: "res4b12_branch2b"
  batch_norm_param {
    use_global_stats: true
  }
}
layer {
  name: "scale4b12_branch2b"
  type: "Scale"
  bottom: "res4b12_branch2b"
  top: "res4b12_branch2b"
  scale_param {
    bias_term: true
  }
}
layer {
  name: "res4b12_branch2b_relu"
  type: "ReLU"
  bottom: "res4b12_branch2b"
  top: "res4b12_branch2b"
}
layer {
  name: "res4b12_branch2c"
  type: "Convolution"
  bottom: "res4b12_branch2b"
  top: "res4b12_branch2c"
  convolution_param {
    num_output: 1024
    bias_term: false
    pad: 0
    kernel_size: 1
    stride: 1
  }
}
layer {
  name: "bn4b12_branch2c"
  type: "BatchNorm"
  bottom: "res4b12_branch2c"
  top: "res4b12_branch2c"
  batch_norm_param {
    use_global_stats: true
  }
}
layer {
  name: "scale4b12_branch2c"
  type: "Scale"
  bottom: "res4b12_branch2c"
  top: "res4b12_branch2c"
  scale_param {
    bias_term: true
  }
}
layer {
  name: "res4b12"
  type: "Eltwise"
  bottom: "res4b11"
  bottom: "res4b12_branch2c"
  top: "res4b12"
}
layer {
  name: "res4b12_relu"
  type: "ReLU"
  bottom: "res4b12"
  top: "res4b12"
}
layer {
  name: "res4b13_branch2a"
  type: "Convolution"
  bottom: "res4b12"
  top: "res4b13_branch2a"
  convolution_param {
    num_output: 256
    bias_term: false
    pad: 0
    kernel_size: 1
    stride: 1
  }
}
layer {
  name: "bn4b13_branch2a"
  type: "BatchNorm"
  bottom: "res4b13_branch2a"
  top: "res4b13_branch2a"
  batch_norm_param {
    use_global_stats: true
  }
}
layer {
  name: "scale4b13_branch2a"
  type: "Scale"
  bottom: "res4b13_branch2a"
  top: "res4b13_branch2a"
  scale_param {
    bias_term: true
  }
}
layer {
  name: "res4b13_branch2a_relu"
  type: "ReLU"
  bottom: "res4b13_branch2a"
  top: "res4b13_branch2a"
}
layer {
  name: "res4b13_branch2b"
  type: "Convolution"
  bottom: "res4b13_branch2a"
  top: "res4b13_branch2b"
  convolution_param {
    num_output: 256
    bias_term: false
    pad: 1
    kernel_size: 3
    stride: 1
  }
}
layer {
  name: "bn4b13_branch2b"
  type: "BatchNorm"
  bottom: "res4b13_branch2b"
  top: "res4b13_branch2b"
  batch_norm_param {
    use_global_stats: true
  }
}
layer {
  name: "scale4b13_branch2b"
  type: "Scale"
  bottom: "res4b13_branch2b"
  top: "res4b13_branch2b"
  scale_param {
    bias_term: true
  }
}
layer {
  name: "res4b13_branch2b_relu"
  type: "ReLU"
  bottom: "res4b13_branch2b"
  top: "res4b13_branch2b"
}
layer {
  name: "res4b13_branch2c"
  type: "Convolution"
  bottom: "res4b13_branch2b"
  top: "res4b13_branch2c"
  convolution_param {
    num_output: 1024
    bias_term: false
    pad: 0
    kernel_size: 1
    stride: 1
  }
}
layer {
  name: "bn4b13_branch2c"
  type: "BatchNorm"
  bottom: "res4b13_branch2c"
  top: "res4b13_branch2c"
  batch_norm_param {
    use_global_stats: true
  }
}
layer {
  name: "scale4b13_branch2c"
  type: "Scale"
  bottom: "res4b13_branch2c"
  top: "res4b13_branch2c"
  scale_param {
    bias_term: true
  }
}
layer {
  name: "res4b13"
  type: "Eltwise"
  bottom: "res4b12"
  bottom: "res4b13_branch2c"
  top: "res4b13"
}
layer {
  name: "res4b13_relu"
  type: "ReLU"
  bottom: "res4b13"
  top: "res4b13"
}
layer {
  name: "res4b14_branch2a"
  type: "Convolution"
  bottom: "res4b13"
  top: "res4b14_branch2a"
  convolution_param {
    num_output: 256
    bias_term: false
    pad: 0
    kernel_size: 1
    stride: 1
  }
}
layer {
  name: "bn4b14_branch2a"
  type: "BatchNorm"
  bottom: "res4b14_branch2a"
  top: "res4b14_branch2a"
  batch_norm_param {
    use_global_stats: true
  }
}
layer {
  name: "scale4b14_branch2a"
  type: "Scale"
  bottom: "res4b14_branch2a"
  top: "res4b14_branch2a"
  scale_param {
    bias_term: true
  }
}
layer {
  name: "res4b14_branch2a_relu"
  type: "ReLU"
  bottom: "res4b14_branch2a"
  top: "res4b14_branch2a"
}
layer {
  name: "res4b14_branch2b"
  type: "Convolution"
  bottom: "res4b14_branch2a"
  top: "res4b14_branch2b"
  convolution_param {
    num_output: 256
    bias_term: false
    pad: 1
    kernel_size: 3
    stride: 1
  }
}
layer {
  name: "bn4b14_branch2b"
  type: "BatchNorm"
  bottom: "res4b14_branch2b"
  top: "res4b14_branch2b"
  batch_norm_param {
    use_global_stats: true
  }
}
layer {
  name: "scale4b14_branch2b"
  type: "Scale"
  bottom: "res4b14_branch2b"
  top: "res4b14_branch2b"
  scale_param {
    bias_term: true
  }
}
layer {
  name: "res4b14_branch2b_relu"
  type: "ReLU"
  bottom: "res4b14_branch2b"
  top: "res4b14_branch2b"
}
layer {
  name: "res4b14_branch2c"
  type: "Convolution"
  bottom: "res4b14_branch2b"
  top: "res4b14_branch2c"
  convolution_param {
    num_output: 1024
    bias_term: false
    pad: 0
    kernel_size: 1
    stride: 1
  }
}
layer {
  name: "bn4b14_branch2c"
  type: "BatchNorm"
  bottom: "res4b14_branch2c"
  top: "res4b14_branch2c"
  batch_norm_param {
    use_global_stats: true
  }
}
layer {
  name: "scale4b14_branch2c"
  type: "Scale"
  bottom: "res4b14_branch2c"
  top: "res4b14_branch2c"
  scale_param {
    bias_term: true
  }
}
layer {
  name: "res4b14"
  type: "Eltwise"
  bottom: "res4b13"
  bottom: "res4b14_branch2c"
  top: "res4b14"
}
layer {
  name: "res4b14_relu"
  type: "ReLU"
  bottom: "res4b14"
  top: "res4b14"
}
layer {
  name: "res4b15_branch2a"
  type: "Convolution"
  bottom: "res4b14"
  top: "res4b15_branch2a"
  convolution_param {
    num_output: 256
    bias_term: false
    pad: 0
    kernel_size: 1
    stride: 1
  }
}
layer {
  name: "bn4b15_branch2a"
  type: "BatchNorm"
  bottom: "res4b15_branch2a"
  top: "res4b15_branch2a"
  batch_norm_param {
    use_global_stats: true
  }
}
layer {
  name: "scale4b15_branch2a"
  type: "Scale"
  bottom: "res4b15_branch2a"
  top: "res4b15_branch2a"
  scale_param {
    bias_term: true
  }
}
layer {
  name: "res4b15_branch2a_relu"
  type: "ReLU"
  bottom: "res4b15_branch2a"
  top: "res4b15_branch2a"
}
layer {
  name: "res4b15_branch2b"
  type: "Convolution"
  bottom: "res4b15_branch2a"
  top: "res4b15_branch2b"
  convolution_param {
    num_output: 256
    bias_term: false
    pad: 1
    kernel_size: 3
    stride: 1
  }
}
layer {
  name: "bn4b15_branch2b"
  type: "BatchNorm"
  bottom: "res4b15_branch2b"
  top: "res4b15_branch2b"
  batch_norm_param {
    use_global_stats: true
  }
}
layer {
  name: "scale4b15_branch2b"
  type: "Scale"
  bottom: "res4b15_branch2b"
  top: "res4b15_branch2b"
  scale_param {
    bias_term: true
  }
}
layer {
  name: "res4b15_branch2b_relu"
  type: "ReLU"
  bottom: "res4b15_branch2b"
  top: "res4b15_branch2b"
}
layer {
  name: "res4b15_branch2c"
  type: "Convolution"
  bottom: "res4b15_branch2b"
  top: "res4b15_branch2c"
  convolution_param {
    num_output: 1024
    bias_term: false
    pad: 0
    kernel_size: 1
    stride: 1
  }
}
layer {
  name: "bn4b15_branch2c"
  type: "BatchNorm"
  bottom: "res4b15_branch2c"
  top: "res4b15_branch2c"
  batch_norm_param {
    use_global_stats: true
  }
}
layer {
  name: "scale4b15_branch2c"
  type: "Scale"
  bottom: "res4b15_branch2c"
  top: "res4b15_branch2c"
  scale_param {
    bias_term: true
  }
}
layer {
  name: "res4b15"
  type: "Eltwise"
  bottom: "res4b14"
  bottom: "res4b15_branch2c"
  top: "res4b15"
}
layer {
  name: "res4b15_relu"
  type: "ReLU"
  bottom: "res4b15"
  top: "res4b15"
}
layer {
  name: "res4b16_branch2a"
  type: "Convolution"
  bottom: "res4b15"
  top: "res4b16_branch2a"
  convolution_param {
    num_output: 256
    bias_term: false
    pad: 0
    kernel_size: 1
    stride: 1
  }
}
layer {
  name: "bn4b16_branch2a"
  type: "BatchNorm"
  bottom: "res4b16_branch2a"
  top: "res4b16_branch2a"
  batch_norm_param {
    use_global_stats: true
  }
}
layer {
  name: "scale4b16_branch2a"
  type: "Scale"
  bottom: "res4b16_branch2a"
  top: "res4b16_branch2a"
  scale_param {
    bias_term: true
  }
}
layer {
  name: "res4b16_branch2a_relu"
  type: "ReLU"
  bottom: "res4b16_branch2a"
  top: "res4b16_branch2a"
}
layer {
  name: "res4b16_branch2b"
  type: "Convolution"
  bottom: "res4b16_branch2a"
  top: "res4b16_branch2b"
  convolution_param {
    num_output: 256
    bias_term: false
    pad: 1
    kernel_size: 3
    stride: 1
  }
}
layer {
  name: "bn4b16_branch2b"
  type: "BatchNorm"
  bottom: "res4b16_branch2b"
  top: "res4b16_branch2b"
  batch_norm_param {
    use_global_stats: true
  }
}
layer {
  name: "scale4b16_branch2b"
  type: "Scale"
  bottom: "res4b16_branch2b"
  top: "res4b16_branch2b"
  scale_param {
    bias_term: true
  }
}
layer {
  name: "res4b16_branch2b_relu"
  type: "ReLU"
  bottom: "res4b16_branch2b"
  top: "res4b16_branch2b"
}
layer {
  name: "res4b16_branch2c"
  type: "Convolution"
  bottom: "res4b16_branch2b"
  top: "res4b16_branch2c"
  convolution_param {
    num_output: 1024
    bias_term: false
    pad: 0
    kernel_size: 1
    stride: 1
  }
}
layer {
  name: "bn4b16_branch2c"
  type: "BatchNorm"
  bottom: "res4b16_branch2c"
  top: "res4b16_branch2c"
  batch_norm_param {
    use_global_stats: true
  }
}
layer {
  name: "scale4b16_branch2c"
  type: "Scale"
  bottom: "res4b16_branch2c"
  top: "res4b16_branch2c"
  scale_param {
    bias_term: true
  }
}
layer {
  name: "res4b16"
  type: "Eltwise"
  bottom: "res4b15"
  bottom: "res4b16_branch2c"
  top: "res4b16"
}
layer {
  name: "res4b16_relu"
  type: "ReLU"
  bottom: "res4b16"
  top: "res4b16"
}
layer {
  name: "res4b17_branch2a"
  type: "Convolution"
  bottom: "res4b16"
  top: "res4b17_branch2a"
  convolution_param {
    num_output: 256
    bias_term: false
    pad: 0
    kernel_size: 1
    stride: 1
  }
}
layer {
  name: "bn4b17_branch2a"
  type: "BatchNorm"
  bottom: "res4b17_branch2a"
  top: "res4b17_branch2a"
  batch_norm_param {
    use_global_stats: true
  }
}
layer {
  name: "scale4b17_branch2a"
  type: "Scale"
  bottom: "res4b17_branch2a"
  top: "res4b17_branch2a"
  scale_param {
    bias_term: true
  }
}
layer {
  name: "res4b17_branch2a_relu"
  type: "ReLU"
  bottom: "res4b17_branch2a"
  top: "res4b17_branch2a"
}
layer {
  name: "res4b17_branch2b"
  type: "Convolution"
  bottom: "res4b17_branch2a"
  top: "res4b17_branch2b"
  convolution_param {
    num_output: 256
    bias_term: false
    pad: 1
    kernel_size: 3
    stride: 1
  }
}
layer {
  name: "bn4b17_branch2b"
  type: "BatchNorm"
  bottom: "res4b17_branch2b"
  top: "res4b17_branch2b"
  batch_norm_param {
    use_global_stats: true
  }
}
layer {
  name: "scale4b17_branch2b"
  type: "Scale"
  bottom: "res4b17_branch2b"
  top: "res4b17_branch2b"
  scale_param {
    bias_term: true
  }
}
layer {
  name: "res4b17_branch2b_relu"
  type: "ReLU"
  bottom: "res4b17_branch2b"
  top: "res4b17_branch2b"
}
layer {
  name: "res4b17_branch2c"
  type: "Convolution"
  bottom: "res4b17_branch2b"
  top: "res4b17_branch2c"
  convolution_param {
    num_output: 1024
    bias_term: false
    pad: 0
    kernel_size: 1
    stride: 1
  }
}
layer {
  name: "bn4b17_branch2c"
  type: "BatchNorm"
  bottom: "res4b17_branch2c"
  top: "res4b17_branch2c"
  batch_norm_param {
    use_global_stats: true
  }
}
layer {
  name: "scale4b17_branch2c"
  type: "Scale"
  bottom: "res4b17_branch2c"
  top: "res4b17_branch2c"
  scale_param {
    bias_term: true
  }
}
layer {
  name: "res4b17"
  type: "Eltwise"
  bottom: "res4b16"
  bottom: "res4b17_branch2c"
  top: "res4b17"
}
layer {
  name: "res4b17_relu"
  type: "ReLU"
  bottom: "res4b17"
  top: "res4b17"
}
layer {
  name: "res4b18_branch2a"
  type: "Convolution"
  bottom: "res4b17"
  top: "res4b18_branch2a"
  convolution_param {
    num_output: 256
    bias_term: false
    pad: 0
    kernel_size: 1
    stride: 1
  }
}
layer {
  name: "bn4b18_branch2a"
  type: "BatchNorm"
  bottom: "res4b18_branch2a"
  top: "res4b18_branch2a"
  batch_norm_param {
    use_global_stats: true
  }
}
layer {
  name: "scale4b18_branch2a"
  type: "Scale"
  bottom: "res4b18_branch2a"
  top: "res4b18_branch2a"
  scale_param {
    bias_term: true
  }
}
layer {
  name: "res4b18_branch2a_relu"
  type: "ReLU"
  bottom: "res4b18_branch2a"
  top: "res4b18_branch2a"
}
layer {
  name: "res4b18_branch2b"
  type: "Convolution"
  bottom: "res4b18_branch2a"
  top: "res4b18_branch2b"
  convolution_param {
    num_output: 256
    bias_term: false
    pad: 1
    kernel_size: 3
    stride: 1
  }
}
layer {
  name: "bn4b18_branch2b"
  type: "BatchNorm"
  bottom: "res4b18_branch2b"
  top: "res4b18_branch2b"
  batch_norm_param {
    use_global_stats: true
  }
}
layer {
  name: "scale4b18_branch2b"
  type: "Scale"
  bottom: "res4b18_branch2b"
  top: "res4b18_branch2b"
  scale_param {
    bias_term: true
  }
}
layer {
  name: "res4b18_branch2b_relu"
  type: "ReLU"
  bottom: "res4b18_branch2b"
  top: "res4b18_branch2b"
}
layer {
  name: "res4b18_branch2c"
  type: "Convolution"
  bottom: "res4b18_branch2b"
  top: "res4b18_branch2c"
  convolution_param {
    num_output: 1024
    bias_term: false
    pad: 0
    kernel_size: 1
    stride: 1
  }
}
layer {
  name: "bn4b18_branch2c"
  type: "BatchNorm"
  bottom: "res4b18_branch2c"
  top: "res4b18_branch2c"
  batch_norm_param {
    use_global_stats: true
  }
}
layer {
  name: "scale4b18_branch2c"
  type: "Scale"
  bottom: "res4b18_branch2c"
  top: "res4b18_branch2c"
  scale_param {
    bias_term: true
  }
}
layer {
  name: "res4b18"
  type: "Eltwise"
  bottom: "res4b17"
  bottom: "res4b18_branch2c"
  top: "res4b18"
}
layer {
  name: "res4b18_relu"
  type: "ReLU"
  bottom: "res4b18"
  top: "res4b18"
}
layer {
  name: "res4b19_branch2a"
  type: "Convolution"
  bottom: "res4b18"
  top: "res4b19_branch2a"
  convolution_param {
    num_output: 256
    bias_term: false
    pad: 0
    kernel_size: 1
    stride: 1
  }
}
layer {
  name: "bn4b19_branch2a"
  type: "BatchNorm"
  bottom: "res4b19_branch2a"
  top: "res4b19_branch2a"
  batch_norm_param {
    use_global_stats: true
  }
}
layer {
  name: "scale4b19_branch2a"
  type: "Scale"
  bottom: "res4b19_branch2a"
  top: "res4b19_branch2a"
  scale_param {
    bias_term: true
  }
}
layer {
  name: "res4b19_branch2a_relu"
  type: "ReLU"
  bottom: "res4b19_branch2a"
  top: "res4b19_branch2a"
}
layer {
  name: "res4b19_branch2b"
  type: "Convolution"
  bottom: "res4b19_branch2a"
  top: "res4b19_branch2b"
  convolution_param {
    num_output: 256
    bias_term: false
    pad: 1
    kernel_size: 3
    stride: 1
  }
}
layer {
  name: "bn4b19_branch2b"
  type: "BatchNorm"
  bottom: "res4b19_branch2b"
  top: "res4b19_branch2b"
  batch_norm_param {
    use_global_stats: true
  }
}
layer {
  name: "scale4b19_branch2b"
  type: "Scale"
  bottom: "res4b19_branch2b"
  top: "res4b19_branch2b"
  scale_param {
    bias_term: true
  }
}
layer {
  name: "res4b19_branch2b_relu"
  type: "ReLU"
  bottom: "res4b19_branch2b"
  top: "res4b19_branch2b"
}
layer {
  name: "res4b19_branch2c"
  type: "Convolution"
  bottom: "res4b19_branch2b"
  top: "res4b19_branch2c"
  convolution_param {
    num_output: 1024
    bias_term: false
    pad: 0
    kernel_size: 1
    stride: 1
  }
}
layer {
  name: "bn4b19_branch2c"
  type: "BatchNorm"
  bottom: "res4b19_branch2c"
  top: "res4b19_branch2c"
  batch_norm_param {
    use_global_stats: true
  }
}
layer {
  name: "scale4b19_branch2c"
  type: "Scale"
  bottom: "res4b19_branch2c"
  top: "res4b19_branch2c"
  scale_param {
    bias_term: true
  }
}
layer {
  name: "res4b19"
  type: "Eltwise"
  bottom: "res4b18"
  bottom: "res4b19_branch2c"
  top: "res4b19"
}
layer {
  name: "res4b19_relu"
  type: "ReLU"
  bottom: "res4b19"
  top: "res4b19"
}
layer {
  name: "res4b20_branch2a"
  type: "Convolution"
  bottom: "res4b19"
  top: "res4b20_branch2a"
  convolution_param {
    num_output: 256
    bias_term: false
    pad: 0
    kernel_size: 1
    stride: 1
  }
}
layer {
  name: "bn4b20_branch2a"
  type: "BatchNorm"
  bottom: "res4b20_branch2a"
  top: "res4b20_branch2a"
  batch_norm_param {
    use_global_stats: true
  }
}
layer {
  name: "scale4b20_branch2a"
  type: "Scale"
  bottom: "res4b20_branch2a"
  top: "res4b20_branch2a"
  scale_param {
    bias_term: true
  }
}
layer {
  name: "res4b20_branch2a_relu"
  type: "ReLU"
  bottom: "res4b20_branch2a"
  top: "res4b20_branch2a"
}
layer {
  name: "res4b20_branch2b"
  type: "Convolution"
  bottom: "res4b20_branch2a"
  top: "res4b20_branch2b"
  convolution_param {
    num_output: 256
    bias_term: false
    pad: 1
    kernel_size: 3
    stride: 1
  }
}
layer {
  name: "bn4b20_branch2b"
  type: "BatchNorm"
  bottom: "res4b20_branch2b"
  top: "res4b20_branch2b"
  batch_norm_param {
    use_global_stats: true
  }
}
layer {
  name: "scale4b20_branch2b"
  type: "Scale"
  bottom: "res4b20_branch2b"
  top: "res4b20_branch2b"
  scale_param {
    bias_term: true
  }
}
layer {
  name: "res4b20_branch2b_relu"
  type: "ReLU"
  bottom: "res4b20_branch2b"
  top: "res4b20_branch2b"
}
layer {
  name: "res4b20_branch2c"
  type: "Convolution"
  bottom: "res4b20_branch2b"
  top: "res4b20_branch2c"
  convolution_param {
    num_output: 1024
    bias_term: false
    pad: 0
    kernel_size: 1
    stride: 1
  }
}
layer {
  name: "bn4b20_branch2c"
  type: "BatchNorm"
  bottom: "res4b20_branch2c"
  top: "res4b20_branch2c"
  batch_norm_param {
    use_global_stats: true
  }
}
layer {
  name: "scale4b20_branch2c"
  type: "Scale"
  bottom: "res4b20_branch2c"
  top: "res4b20_branch2c"
  scale_param {
    bias_term: true
  }
}
layer {
  name: "res4b20"
  type: "Eltwise"
  bottom: "res4b19"
  bottom: "res4b20_branch2c"
  top: "res4b20"
}
layer {
  name: "res4b20_relu"
  type: "ReLU"
  bottom: "res4b20"
  top: "res4b20"
}
layer {
  name: "res4b21_branch2a"
  type: "Convolution"
  bottom: "res4b20"
  top: "res4b21_branch2a"
  convolution_param {
    num_output: 256
    bias_term: false
    pad: 0
    kernel_size: 1
    stride: 1
  }
}
layer {
  name: "bn4b21_branch2a"
  type: "BatchNorm"
  bottom: "res4b21_branch2a"
  top: "res4b21_branch2a"
  batch_norm_param {
    use_global_stats: true
  }
}
layer {
  name: "scale4b21_branch2a"
  type: "Scale"
  bottom: "res4b21_branch2a"
  top: "res4b21_branch2a"
  scale_param {
    bias_term: true
  }
}
layer {
  name: "res4b21_branch2a_relu"
  type: "ReLU"
  bottom: "res4b21_branch2a"
  top: "res4b21_branch2a"
}
layer {
  name: "res4b21_branch2b"
  type: "Convolution"
  bottom: "res4b21_branch2a"
  top: "res4b21_branch2b"
  convolution_param {
    num_output: 256
    bias_term: false
    pad: 1
    kernel_size: 3
    stride: 1
  }
}
layer {
  name: "bn4b21_branch2b"
  type: "BatchNorm"
  bottom: "res4b21_branch2b"
  top: "res4b21_branch2b"
  batch_norm_param {
    use_global_stats: true
  }
}
layer {
  name: "scale4b21_branch2b"
  type: "Scale"
  bottom: "res4b21_branch2b"
  top: "res4b21_branch2b"
  scale_param {
    bias_term: true
  }
}
layer {
  name: "res4b21_branch2b_relu"
  type: "ReLU"
  bottom: "res4b21_branch2b"
  top: "res4b21_branch2b"
}
layer {
  name: "res4b21_branch2c"
  type: "Convolution"
  bottom: "res4b21_branch2b"
  top: "res4b21_branch2c"
  convolution_param {
    num_output: 1024
    bias_term: false
    pad: 0
    kernel_size: 1
    stride: 1
  }
}
layer {
  name: "bn4b21_branch2c"
  type: "BatchNorm"
  bottom: "res4b21_branch2c"
  top: "res4b21_branch2c"
  batch_norm_param {
    use_global_stats: true
  }
}
layer {
  name: "scale4b21_branch2c"
  type: "Scale"
  bottom: "res4b21_branch2c"
  top: "res4b21_branch2c"
  scale_param {
    bias_term: true
  }
}
layer {
  name: "res4b21"
  type: "Eltwise"
  bottom: "res4b20"
  bottom: "res4b21_branch2c"
  top: "res4b21"
}
layer {
  name: "res4b21_relu"
  type: "ReLU"
  bottom: "res4b21"
  top: "res4b21"
}
layer {
  name: "res4b22_branch2a"
  type: "Convolution"
  bottom: "res4b21"
  top: "res4b22_branch2a"
  convolution_param {
    num_output: 256
    bias_term: false
    pad: 0
    kernel_size: 1
    stride: 1
  }
}
layer {
  name: "bn4b22_branch2a"
  type: "BatchNorm"
  bottom: "res4b22_branch2a"
  top: "res4b22_branch2a"
  batch_norm_param {
    use_global_stats: true
  }
}
layer {
  name: "scale4b22_branch2a"
  type: "Scale"
  bottom: "res4b22_branch2a"
  top: "res4b22_branch2a"
  scale_param {
    bias_term: true
  }
}
layer {
  name: "res4b22_branch2a_relu"
  type: "ReLU"
  bottom: "res4b22_branch2a"
  top: "res4b22_branch2a"
}
layer {
  name: "res4b22_branch2b"
  type: "Convolution"
  bottom: "res4b22_branch2a"
  top: "res4b22_branch2b"
  convolution_param {
    num_output: 256
    bias_term: false
    pad: 1
    kernel_size: 3
    stride: 1
  }
}
layer {
  name: "bn4b22_branch2b"
  type: "BatchNorm"
  bottom: "res4b22_branch2b"
  top: "res4b22_branch2b"
  batch_norm_param {
    use_global_stats: true
  }
}
layer {
  name: "scale4b22_branch2b"
  type: "Scale"
  bottom: "res4b22_branch2b"
  top: "res4b22_branch2b"
  scale_param {
    bias_term: true
  }
}
layer {
  name: "res4b22_branch2b_relu"
  type: "ReLU"
  bottom: "res4b22_branch2b"
  top: "res4b22_branch2b"
}
layer {
  name: "res4b22_branch2c"
  type: "Convolution"
  bottom: "res4b22_branch2b"
  top: "res4b22_branch2c"
  convolution_param {
    num_output: 1024
    bias_term: false
    pad: 0
    kernel_size: 1
    stride: 1
  }
}
layer {
  name: "bn4b22_branch2c"
  type: "BatchNorm"
  bottom: "res4b22_branch2c"
  top: "res4b22_branch2c"
  batch_norm_param {
    use_global_stats: true
  }
}
layer {
  name: "scale4b22_branch2c"
  type: "Scale"
  bottom: "res4b22_branch2c"
  top: "res4b22_branch2c"
  scale_param {
    bias_term: true
  }
}
layer {
  name: "res4b22"
  type: "Eltwise"
  bottom: "res4b21"
  bottom: "res4b22_branch2c"
  top: "res4b22"
}
layer {
  name: "res4b22_relu"
  type: "ReLU"
  bottom: "res4b22"
  top: "res4b22"
}
layer {
  name: "res4b23_branch2a"
  type: "Convolution"
  bottom: "res4b22"
  top: "res4b23_branch2a"
  convolution_param {
    num_output: 256
    bias_term: false
    pad: 0
    kernel_size: 1
    stride: 1
  }
}
layer {
  name: "bn4b23_branch2a"
  type: "BatchNorm"
  bottom: "res4b23_branch2a"
  top: "res4b23_branch2a"
  batch_norm_param {
    use_global_stats: true
  }
}
layer {
  name: "scale4b23_branch2a"
  type: "Scale"
  bottom: "res4b23_branch2a"
  top: "res4b23_branch2a"
  scale_param {
    bias_term: true
  }
}
layer {
  name: "res4b23_branch2a_relu"
  type: "ReLU"
  bottom: "res4b23_branch2a"
  top: "res4b23_branch2a"
}
layer {
  name: "res4b23_branch2b"
  type: "Convolution"
  bottom: "res4b23_branch2a"
  top: "res4b23_branch2b"
  convolution_param {
    num_output: 256
    bias_term: false
    pad: 1
    kernel_size: 3
    stride: 1
  }
}
layer {
  name: "bn4b23_branch2b"
  type: "BatchNorm"
  bottom: "res4b23_branch2b"
  top: "res4b23_branch2b"
  batch_norm_param {
    use_global_stats: true
  }
}
layer {
  name: "scale4b23_branch2b"
  type: "Scale"
  bottom: "res4b23_branch2b"
  top: "res4b23_branch2b"
  scale_param {
    bias_term: true
  }
}
layer {
  name: "res4b23_branch2b_relu"
  type: "ReLU"
  bottom: "res4b23_branch2b"
  top: "res4b23_branch2b"
}
layer {
  name: "res4b23_branch2c"
  type: "Convolution"
  bottom: "res4b23_branch2b"
  top: "res4b23_branch2c"
  convolution_param {
    num_output: 1024
    bias_term: false
    pad: 0
    kernel_size: 1
    stride: 1
  }
}
layer {
  name: "bn4b23_branch2c"
  type: "BatchNorm"
  bottom: "res4b23_branch2c"
  top: "res4b23_branch2c"
  batch_norm_param {
    use_global_stats: true
  }
}
layer {
  name: "scale4b23_branch2c"
  type: "Scale"
  bottom: "res4b23_branch2c"
  top: "res4b23_branch2c"
  scale_param {
    bias_term: true
  }
}
layer {
  name: "res4b23"
  type: "Eltwise"
  bottom: "res4b22"
  bottom: "res4b23_branch2c"
  top: "res4b23"
}
layer {
  name: "res4b23_relu"
  type: "ReLU"
  bottom: "res4b23"
  top: "res4b23"
}
layer {
  name: "res4b24_branch2a"
  type: "Convolution"
  bottom: "res4b23"
  top: "res4b24_branch2a"
  convolution_param {
    num_output: 256
    bias_term: false
    pad: 0
    kernel_size: 1
    stride: 1
  }
}
layer {
  name: "bn4b24_branch2a"
  type: "BatchNorm"
  bottom: "res4b24_branch2a"
  top: "res4b24_branch2a"
  batch_norm_param {
    use_global_stats: true
  }
}
layer {
  name: "scale4b24_branch2a"
  type: "Scale"
  bottom: "res4b24_branch2a"
  top: "res4b24_branch2a"
  scale_param {
    bias_term: true
  }
}
layer {
  name: "res4b24_branch2a_relu"
  type: "ReLU"
  bottom: "res4b24_branch2a"
  top: "res4b24_branch2a"
}
layer {
  name: "res4b24_branch2b"
  type: "Convolution"
  bottom: "res4b24_branch2a"
  top: "res4b24_branch2b"
  convolution_param {
    num_output: 256
    bias_term: false
    pad: 1
    kernel_size: 3
    stride: 1
  }
}
layer {
  name: "bn4b24_branch2b"
  type: "BatchNorm"
  bottom: "res4b24_branch2b"
  top: "res4b24_branch2b"
  batch_norm_param {
    use_global_stats: true
  }
}
layer {
  name: "scale4b24_branch2b"
  type: "Scale"
  bottom: "res4b24_branch2b"
  top: "res4b24_branch2b"
  scale_param {
    bias_term: true
  }
}
layer {
  name: "res4b24_branch2b_relu"
  type: "ReLU"
  bottom: "res4b24_branch2b"
  top: "res4b24_branch2b"
}
layer {
  name: "res4b24_branch2c"
  type: "Convolution"
  bottom: "res4b24_branch2b"
  top: "res4b24_branch2c"
  convolution_param {
    num_output: 1024
    bias_term: false
    pad: 0
    kernel_size: 1
    stride: 1
  }
}
layer {
  name: "bn4b24_branch2c"
  type: "BatchNorm"
  bottom: "res4b24_branch2c"
  top: "res4b24_branch2c"
  batch_norm_param {
    use_global_stats: true
  }
}
layer {
  name: "scale4b24_branch2c"
  type: "Scale"
  bottom: "res4b24_branch2c"
  top: "res4b24_branch2c"
  scale_param {
    bias_term: true
  }
}
layer {
  name: "res4b24"
  type: "Eltwise"
  bottom: "res4b23"
  bottom: "res4b24_branch2c"
  top: "res4b24"
}
layer {
  name: "res4b24_relu"
  type: "ReLU"
  bottom: "res4b24"
  top: "res4b24"
}
layer {
  name: "res4b25_branch2a"
  type: "Convolution"
  bottom: "res4b24"
  top: "res4b25_branch2a"
  convolution_param {
    num_output: 256
    bias_term: false
    pad: 0
    kernel_size: 1
    stride: 1
  }
}
layer {
  name: "bn4b25_branch2a"
  type: "BatchNorm"
  bottom: "res4b25_branch2a"
  top: "res4b25_branch2a"
  batch_norm_param {
    use_global_stats: true
  }
}
layer {
  name: "scale4b25_branch2a"
  type: "Scale"
  bottom: "res4b25_branch2a"
  top: "res4b25_branch2a"
  scale_param {
    bias_term: true
  }
}
layer {
  name: "res4b25_branch2a_relu"
  type: "ReLU"
  bottom: "res4b25_branch2a"
  top: "res4b25_branch2a"
}
layer {
  name: "res4b25_branch2b"
  type: "Convolution"
  bottom: "res4b25_branch2a"
  top: "res4b25_branch2b"
  convolution_param {
    num_output: 256
    bias_term: false
    pad: 1
    kernel_size: 3
    stride: 1
  }
}
layer {
  name: "bn4b25_branch2b"
  type: "BatchNorm"
  bottom: "res4b25_branch2b"
  top: "res4b25_branch2b"
  batch_norm_param {
    use_global_stats: true
  }
}
layer {
  name: "scale4b25_branch2b"
  type: "Scale"
  bottom: "res4b25_branch2b"
  top: "res4b25_branch2b"
  scale_param {
    bias_term: true
  }
}
layer {
  name: "res4b25_branch2b_relu"
  type: "ReLU"
  bottom: "res4b25_branch2b"
  top: "res4b25_branch2b"
}
layer {
  name: "res4b25_branch2c"
  type: "Convolution"
  bottom: "res4b25_branch2b"
  top: "res4b25_branch2c"
  convolution_param {
    num_output: 1024
    bias_term: false
    pad: 0
    kernel_size: 1
    stride: 1
  }
}
layer {
  name: "bn4b25_branch2c"
  type: "BatchNorm"
  bottom: "res4b25_branch2c"
  top: "res4b25_branch2c"
  batch_norm_param {
    use_global_stats: true
  }
}
layer {
  name: "scale4b25_branch2c"
  type: "Scale"
  bottom: "res4b25_branch2c"
  top: "res4b25_branch2c"
  scale_param {
    bias_term: true
  }
}
layer {
  name: "res4b25"
  type: "Eltwise"
  bottom: "res4b24"
  bottom: "res4b25_branch2c"
  top: "res4b25"
}
layer {
  name: "res4b25_relu"
  type: "ReLU"
  bottom: "res4b25"
  top: "res4b25"
}
layer {
  name: "res4b26_branch2a"
  type: "Convolution"
  bottom: "res4b25"
  top: "res4b26_branch2a"
  convolution_param {
    num_output: 256
    bias_term: false
    pad: 0
    kernel_size: 1
    stride: 1
  }
}
layer {
  name: "bn4b26_branch2a"
  type: "BatchNorm"
  bottom: "res4b26_branch2a"
  top: "res4b26_branch2a"
  batch_norm_param {
    use_global_stats: true
  }
}
layer {
  name: "scale4b26_branch2a"
  type: "Scale"
  bottom: "res4b26_branch2a"
  top: "res4b26_branch2a"
  scale_param {
    bias_term: true
  }
}
layer {
  name: "res4b26_branch2a_relu"
  type: "ReLU"
  bottom: "res4b26_branch2a"
  top: "res4b26_branch2a"
}
layer {
  name: "res4b26_branch2b"
  type: "Convolution"
  bottom: "res4b26_branch2a"
  top: "res4b26_branch2b"
  convolution_param {
    num_output: 256
    bias_term: false
    pad: 1
    kernel_size: 3
    stride: 1
  }
}
layer {
  name: "bn4b26_branch2b"
  type: "BatchNorm"
  bottom: "res4b26_branch2b"
  top: "res4b26_branch2b"
  batch_norm_param {
    use_global_stats: true
  }
}
layer {
  name: "scale4b26_branch2b"
  type: "Scale"
  bottom: "res4b26_branch2b"
  top: "res4b26_branch2b"
  scale_param {
    bias_term: true
  }
}
layer {
  name: "res4b26_branch2b_relu"
  type: "ReLU"
  bottom: "res4b26_branch2b"
  top: "res4b26_branch2b"
}
layer {
  name: "res4b26_branch2c"
  type: "Convolution"
  bottom: "res4b26_branch2b"
  top: "res4b26_branch2c"
  convolution_param {
    num_output: 1024
    bias_term: false
    pad: 0
    kernel_size: 1
    stride: 1
  }
}
layer {
  name: "bn4b26_branch2c"
  type: "BatchNorm"
  bottom: "res4b26_branch2c"
  top: "res4b26_branch2c"
  batch_norm_param {
    use_global_stats: true
  }
}
layer {
  name: "scale4b26_branch2c"
  type: "Scale"
  bottom: "res4b26_branch2c"
  top: "res4b26_branch2c"
  scale_param {
    bias_term: true
  }
}
layer {
  name: "res4b26"
  type: "Eltwise"
  bottom: "res4b25"
  bottom: "res4b26_branch2c"
  top: "res4b26"
}
layer {
  name: "res4b26_relu"
  type: "ReLU"
  bottom: "res4b26"
  top: "res4b26"
}
layer {
  name: "res4b27_branch2a"
  type: "Convolution"
  bottom: "res4b26"
  top: "res4b27_branch2a"
  convolution_param {
    num_output: 256
    bias_term: false
    pad: 0
    kernel_size: 1
    stride: 1
  }
}
layer {
  name: "bn4b27_branch2a"
  type: "BatchNorm"
  bottom: "res4b27_branch2a"
  top: "res4b27_branch2a"
  batch_norm_param {
    use_global_stats: true
  }
}
layer {
  name: "scale4b27_branch2a"
  type: "Scale"
  bottom: "res4b27_branch2a"
  top: "res4b27_branch2a"
  scale_param {
    bias_term: true
  }
}
layer {
  name: "res4b27_branch2a_relu"
  type: "ReLU"
  bottom: "res4b27_branch2a"
  top: "res4b27_branch2a"
}
layer {
  name: "res4b27_branch2b"
  type: "Convolution"
  bottom: "res4b27_branch2a"
  top: "res4b27_branch2b"
  convolution_param {
    num_output: 256
    bias_term: false
    pad: 1
    kernel_size: 3
    stride: 1
  }
}
layer {
  name: "bn4b27_branch2b"
  type: "BatchNorm"
  bottom: "res4b27_branch2b"
  top: "res4b27_branch2b"
  batch_norm_param {
    use_global_stats: true
  }
}
layer {
  name: "scale4b27_branch2b"
  type: "Scale"
  bottom: "res4b27_branch2b"
  top: "res4b27_branch2b"
  scale_param {
    bias_term: true
  }
}
layer {
  name: "res4b27_branch2b_relu"
  type: "ReLU"
  bottom: "res4b27_branch2b"
  top: "res4b27_branch2b"
}
layer {
  name: "res4b27_branch2c"
  type: "Convolution"
  bottom: "res4b27_branch2b"
  top: "res4b27_branch2c"
  convolution_param {
    num_output: 1024
    bias_term: false
    pad: 0
    kernel_size: 1
    stride: 1
  }
}
layer {
  name: "bn4b27_branch2c"
  type: "BatchNorm"
  bottom: "res4b27_branch2c"
  top: "res4b27_branch2c"
  batch_norm_param {
    use_global_stats: true
  }
}
layer {
  name: "scale4b27_branch2c"
  type: "Scale"
  bottom: "res4b27_branch2c"
  top: "res4b27_branch2c"
  scale_param {
    bias_term: true
  }
}
layer {
  name: "res4b27"
  type: "Eltwise"
  bottom: "res4b26"
  bottom: "res4b27_branch2c"
  top: "res4b27"
}
layer {
  name: "res4b27_relu"
  type: "ReLU"
  bottom: "res4b27"
  top: "res4b27"
}
layer {
  name: "res4b28_branch2a"
  type: "Convolution"
  bottom: "res4b27"
  top: "res4b28_branch2a"
  convolution_param {
    num_output: 256
    bias_term: false
    pad: 0
    kernel_size: 1
    stride: 1
  }
}
layer {
  name: "bn4b28_branch2a"
  type: "BatchNorm"
  bottom: "res4b28_branch2a"
  top: "res4b28_branch2a"
  batch_norm_param {
    use_global_stats: true
  }
}
layer {
  name: "scale4b28_branch2a"
  type: "Scale"
  bottom: "res4b28_branch2a"
  top: "res4b28_branch2a"
  scale_param {
    bias_term: true
  }
}
layer {
  name: "res4b28_branch2a_relu"
  type: "ReLU"
  bottom: "res4b28_branch2a"
  top: "res4b28_branch2a"
}
layer {
  name: "res4b28_branch2b"
  type: "Convolution"
  bottom: "res4b28_branch2a"
  top: "res4b28_branch2b"
  convolution_param {
    num_output: 256
    bias_term: false
    pad: 1
    kernel_size: 3
    stride: 1
  }
}
layer {
  name: "bn4b28_branch2b"
  type: "BatchNorm"
  bottom: "res4b28_branch2b"
  top: "res4b28_branch2b"
  batch_norm_param {
    use_global_stats: true
  }
}
layer {
  name: "scale4b28_branch2b"
  type: "Scale"
  bottom: "res4b28_branch2b"
  top: "res4b28_branch2b"
  scale_param {
    bias_term: true
  }
}
layer {
  name: "res4b28_branch2b_relu"
  type: "ReLU"
  bottom: "res4b28_branch2b"
  top: "res4b28_branch2b"
}
layer {
  name: "res4b28_branch2c"
  type: "Convolution"
  bottom: "res4b28_branch2b"
  top: "res4b28_branch2c"
  convolution_param {
    num_output: 1024
    bias_term: false
    pad: 0
    kernel_size: 1
    stride: 1
  }
}
layer {
  name: "bn4b28_branch2c"
  type: "BatchNorm"
  bottom: "res4b28_branch2c"
  top: "res4b28_branch2c"
  batch_norm_param {
    use_global_stats: true
  }
}
layer {
  name: "scale4b28_branch2c"
  type: "Scale"
  bottom: "res4b28_branch2c"
  top: "res4b28_branch2c"
  scale_param {
    bias_term: true
  }
}
layer {
  name: "res4b28"
  type: "Eltwise"
  bottom: "res4b27"
  bottom: "res4b28_branch2c"
  top: "res4b28"
}
layer {
  name: "res4b28_relu"
  type: "ReLU"
  bottom: "res4b28"
  top: "res4b28"
}
layer {
  name: "res4b29_branch2a"
  type: "Convolution"
  bottom: "res4b28"
  top: "res4b29_branch2a"
  convolution_param {
    num_output: 256
    bias_term: false
    pad: 0
    kernel_size: 1
    stride: 1
  }
}
layer {
  name: "bn4b29_branch2a"
  type: "BatchNorm"
  bottom: "res4b29_branch2a"
  top: "res4b29_branch2a"
  batch_norm_param {
    use_global_stats: true
  }
}
layer {
  name: "scale4b29_branch2a"
  type: "Scale"
  bottom: "res4b29_branch2a"
  top: "res4b29_branch2a"
  scale_param {
    bias_term: true
  }
}
layer {
  name: "res4b29_branch2a_relu"
  type: "ReLU"
  bottom: "res4b29_branch2a"
  top: "res4b29_branch2a"
}
layer {
  name: "res4b29_branch2b"
  type: "Convolution"
  bottom: "res4b29_branch2a"
  top: "res4b29_branch2b"
  convolution_param {
    num_output: 256
    bias_term: false
    pad: 1
    kernel_size: 3
    stride: 1
  }
}
layer {
  name: "bn4b29_branch2b"
  type: "BatchNorm"
  bottom: "res4b29_branch2b"
  top: "res4b29_branch2b"
  batch_norm_param {
    use_global_stats: true
  }
}
layer {
  name: "scale4b29_branch2b"
  type: "Scale"
  bottom: "res4b29_branch2b"
  top: "res4b29_branch2b"
  scale_param {
    bias_term: true
  }
}
layer {
  name: "res4b29_branch2b_relu"
  type: "ReLU"
  bottom: "res4b29_branch2b"
  top: "res4b29_branch2b"
}
layer {
  name: "res4b29_branch2c"
  type: "Convolution"
  bottom: "res4b29_branch2b"
  top: "res4b29_branch2c"
  convolution_param {
    num_output: 1024
    bias_term: false
    pad: 0
    kernel_size: 1
    stride: 1
  }
}
layer {
  name: "bn4b29_branch2c"
  type: "BatchNorm"
  bottom: "res4b29_branch2c"
  top: "res4b29_branch2c"
  batch_norm_param {
    use_global_stats: true
  }
}
layer {
  name: "scale4b29_branch2c"
  type: "Scale"
  bottom: "res4b29_branch2c"
  top: "res4b29_branch2c"
  scale_param {
    bias_term: true
  }
}
layer {
  name: "res4b29"
  type: "Eltwise"
  bottom: "res4b28"
  bottom: "res4b29_branch2c"
  top: "res4b29"
}
layer {
  name: "res4b29_relu"
  type: "ReLU"
  bottom: "res4b29"
  top: "res4b29"
}
layer {
  name: "res4b30_branch2a"
  type: "Convolution"
  bottom: "res4b29"
  top: "res4b30_branch2a"
  convolution_param {
    num_output: 256
    bias_term: false
    pad: 0
    kernel_size: 1
    stride: 1
  }
}
layer {
  name: "bn4b30_branch2a"
  type: "BatchNorm"
  bottom: "res4b30_branch2a"
  top: "res4b30_branch2a"
  batch_norm_param {
    use_global_stats: true
  }
}
layer {
  name: "scale4b30_branch2a"
  type: "Scale"
  bottom: "res4b30_branch2a"
  top: "res4b30_branch2a"
  scale_param {
    bias_term: true
  }
}
layer {
  name: "res4b30_branch2a_relu"
  type: "ReLU"
  bottom: "res4b30_branch2a"
  top: "res4b30_branch2a"
}
layer {
  name: "res4b30_branch2b"
  type: "Convolution"
  bottom: "res4b30_branch2a"
  top: "res4b30_branch2b"
  convolution_param {
    num_output: 256
    bias_term: false
    pad: 1
    kernel_size: 3
    stride: 1
  }
}
layer {
  name: "bn4b30_branch2b"
  type: "BatchNorm"
  bottom: "res4b30_branch2b"
  top: "res4b30_branch2b"
  batch_norm_param {
    use_global_stats: true
  }
}
layer {
  name: "scale4b30_branch2b"
  type: "Scale"
  bottom: "res4b30_branch2b"
  top: "res4b30_branch2b"
  scale_param {
    bias_term: true
  }
}
layer {
  name: "res4b30_branch2b_relu"
  type: "ReLU"
  bottom: "res4b30_branch2b"
  top: "res4b30_branch2b"
}
layer {
  name: "res4b30_branch2c"
  type: "Convolution"
  bottom: "res4b30_branch2b"
  top: "res4b30_branch2c"
  convolution_param {
    num_output: 1024
    bias_term: false
    pad: 0
    kernel_size: 1
    stride: 1
  }
}
layer {
  name: "bn4b30_branch2c"
  type: "BatchNorm"
  bottom: "res4b30_branch2c"
  top: "res4b30_branch2c"
  batch_norm_param {
    use_global_stats: true
  }
}
layer {
  name: "scale4b30_branch2c"
  type: "Scale"
  bottom: "res4b30_branch2c"
  top: "res4b30_branch2c"
  scale_param {
    bias_term: true
  }
}
layer {
  name: "res4b30"
  type: "Eltwise"
  bottom: "res4b29"
  bottom: "res4b30_branch2c"
  top: "res4b30"
}
layer {
  name: "res4b30_relu"
  type: "ReLU"
  bottom: "res4b30"
  top: "res4b30"
}
layer {
  name: "res4b31_branch2a"
  type: "Convolution"
  bottom: "res4b30"
  top: "res4b31_branch2a"
  convolution_param {
    num_output: 256
    bias_term: false
    pad: 0
    kernel_size: 1
    stride: 1
  }
}
layer {
  name: "bn4b31_branch2a"
  type: "BatchNorm"
  bottom: "res4b31_branch2a"
  top: "res4b31_branch2a"
  batch_norm_param {
    use_global_stats: true
  }
}
layer {
  name: "scale4b31_branch2a"
  type: "Scale"
  bottom: "res4b31_branch2a"
  top: "res4b31_branch2a"
  scale_param {
    bias_term: true
  }
}
layer {
  name: "res4b31_branch2a_relu"
  type: "ReLU"
  bottom: "res4b31_branch2a"
  top: "res4b31_branch2a"
}
layer {
  name: "res4b31_branch2b"
  type: "Convolution"
  bottom: "res4b31_branch2a"
  top: "res4b31_branch2b"
  convolution_param {
    num_output: 256
    bias_term: false
    pad: 1
    kernel_size: 3
    stride: 1
  }
}
layer {
  name: "bn4b31_branch2b"
  type: "BatchNorm"
  bottom: "res4b31_branch2b"
  top: "res4b31_branch2b"
  batch_norm_param {
    use_global_stats: true
  }
}
layer {
  name: "scale4b31_branch2b"
  type: "Scale"
  bottom: "res4b31_branch2b"
  top: "res4b31_branch2b"
  scale_param {
    bias_term: true
  }
}
layer {
  name: "res4b31_branch2b_relu"
  type: "ReLU"
  bottom: "res4b31_branch2b"
  top: "res4b31_branch2b"
}
layer {
  name: "res4b31_branch2c"
  type: "Convolution"
  bottom: "res4b31_branch2b"
  top: "res4b31_branch2c"
  convolution_param {
    num_output: 1024
    bias_term: false
    pad: 0
    kernel_size: 1
    stride: 1
  }
}
layer {
  name: "bn4b31_branch2c"
  type: "BatchNorm"
  bottom: "res4b31_branch2c"
  top: "res4b31_branch2c"
  batch_norm_param {
    use_global_stats: true
  }
}
layer {
  name: "scale4b31_branch2c"
  type: "Scale"
  bottom: "res4b31_branch2c"
  top: "res4b31_branch2c"
  scale_param {
    bias_term: true
  }
}
layer {
  name: "res4b31"
  type: "Eltwise"
  bottom: "res4b30"
  bottom: "res4b31_branch2c"
  top: "res4b31"
}
layer {
  name: "res4b31_relu"
  type: "ReLU"
  bottom: "res4b31"
  top: "res4b31"
}
layer {
  name: "res4b32_branch2a"
  type: "Convolution"
  bottom: "res4b31"
  top: "res4b32_branch2a"
  convolution_param {
    num_output: 256
    bias_term: false
    pad: 0
    kernel_size: 1
    stride: 1
  }
}
layer {
  name: "bn4b32_branch2a"
  type: "BatchNorm"
  bottom: "res4b32_branch2a"
  top: "res4b32_branch2a"
  batch_norm_param {
    use_global_stats: true
  }
}
layer {
  name: "scale4b32_branch2a"
  type: "Scale"
  bottom: "res4b32_branch2a"
  top: "res4b32_branch2a"
  scale_param {
    bias_term: true
  }
}
layer {
  name: "res4b32_branch2a_relu"
  type: "ReLU"
  bottom: "res4b32_branch2a"
  top: "res4b32_branch2a"
}
layer {
  name: "res4b32_branch2b"
  type: "Convolution"
  bottom: "res4b32_branch2a"
  top: "res4b32_branch2b"
  convolution_param {
    num_output: 256
    bias_term: false
    pad: 1
    kernel_size: 3
    stride: 1
  }
}
layer {
  name: "bn4b32_branch2b"
  type: "BatchNorm"
  bottom: "res4b32_branch2b"
  top: "res4b32_branch2b"
  batch_norm_param {
    use_global_stats: true
  }
}
layer {
  name: "scale4b32_branch2b"
  type: "Scale"
  bottom: "res4b32_branch2b"
  top: "res4b32_branch2b"
  scale_param {
    bias_term: true
  }
}
layer {
  name: "res4b32_branch2b_relu"
  type: "ReLU"
  bottom: "res4b32_branch2b"
  top: "res4b32_branch2b"
}
layer {
  name: "res4b32_branch2c"
  type: "Convolution"
  bottom: "res4b32_branch2b"
  top: "res4b32_branch2c"
  convolution_param {
    num_output: 1024
    bias_term: false
    pad: 0
    kernel_size: 1
    stride: 1
  }
}
layer {
  name: "bn4b32_branch2c"
  type: "BatchNorm"
  bottom: "res4b32_branch2c"
  top: "res4b32_branch2c"
  batch_norm_param {
    use_global_stats: true
  }
}
layer {
  name: "scale4b32_branch2c"
  type: "Scale"
  bottom: "res4b32_branch2c"
  top: "res4b32_branch2c"
  scale_param {
    bias_term: true
  }
}
layer {
  name: "res4b32"
  type: "Eltwise"
  bottom: "res4b31"
  bottom: "res4b32_branch2c"
  top: "res4b32"
}
layer {
  name: "res4b32_relu"
  type: "ReLU"
  bottom: "res4b32"
  top: "res4b32"
}
layer {
  name: "res4b33_branch2a"
  type: "Convolution"
  bottom: "res4b32"
  top: "res4b33_branch2a"
  convolution_param {
    num_output: 256
    bias_term: false
    pad: 0
    kernel_size: 1
    stride: 1
  }
}
layer {
  name: "bn4b33_branch2a"
  type: "BatchNorm"
  bottom: "res4b33_branch2a"
  top: "res4b33_branch2a"
  batch_norm_param {
    use_global_stats: true
  }
}
layer {
  name: "scale4b33_branch2a"
  type: "Scale"
  bottom: "res4b33_branch2a"
  top: "res4b33_branch2a"
  scale_param {
    bias_term: true
  }
}
layer {
  name: "res4b33_branch2a_relu"
  type: "ReLU"
  bottom: "res4b33_branch2a"
  top: "res4b33_branch2a"
}
layer {
  name: "res4b33_branch2b"
  type: "Convolution"
  bottom: "res4b33_branch2a"
  top: "res4b33_branch2b"
  convolution_param {
    num_output: 256
    bias_term: false
    pad: 1
    kernel_size: 3
    stride: 1
  }
}
layer {
  name: "bn4b33_branch2b"
  type: "BatchNorm"
  bottom: "res4b33_branch2b"
  top: "res4b33_branch2b"
  batch_norm_param {
    use_global_stats: true
  }
}
layer {
  name: "scale4b33_branch2b"
  type: "Scale"
  bottom: "res4b33_branch2b"
  top: "res4b33_branch2b"
  scale_param {
    bias_term: true
  }
}
layer {
  name: "res4b33_branch2b_relu"
  type: "ReLU"
  bottom: "res4b33_branch2b"
  top: "res4b33_branch2b"
}
layer {
  name: "res4b33_branch2c"
  type: "Convolution"
  bottom: "res4b33_branch2b"
  top: "res4b33_branch2c"
  convolution_param {
    num_output: 1024
    bias_term: false
    pad: 0
    kernel_size: 1
    stride: 1
  }
}
layer {
  name: "bn4b33_branch2c"
  type: "BatchNorm"
  bottom: "res4b33_branch2c"
  top: "res4b33_branch2c"
  batch_norm_param {
    use_global_stats: true
  }
}
layer {
  name: "scale4b33_branch2c"
  type: "Scale"
  bottom: "res4b33_branch2c"
  top: "res4b33_branch2c"
  scale_param {
    bias_term: true
  }
}
layer {
  name: "res4b33"
  type: "Eltwise"
  bottom: "res4b32"
  bottom: "res4b33_branch2c"
  top: "res4b33"
}
layer {
  name: "res4b33_relu"
  type: "ReLU"
  bottom: "res4b33"
  top: "res4b33"
}
layer {
  name: "res4b34_branch2a"
  type: "Convolution"
  bottom: "res4b33"
  top: "res4b34_branch2a"
  convolution_param {
    num_output: 256
    bias_term: false
    pad: 0
    kernel_size: 1
    stride: 1
  }
}
layer {
  name: "bn4b34_branch2a"
  type: "BatchNorm"
  bottom: "res4b34_branch2a"
  top: "res4b34_branch2a"
  batch_norm_param {
    use_global_stats: true
  }
}
layer {
  name: "scale4b34_branch2a"
  type: "Scale"
  bottom: "res4b34_branch2a"
  top: "res4b34_branch2a"
  scale_param {
    bias_term: true
  }
}
layer {
  name: "res4b34_branch2a_relu"
  type: "ReLU"
  bottom: "res4b34_branch2a"
  top: "res4b34_branch2a"
}
layer {
  name: "res4b34_branch2b"
  type: "Convolution"
  bottom: "res4b34_branch2a"
  top: "res4b34_branch2b"
  convolution_param {
    num_output: 256
    bias_term: false
    pad: 1
    kernel_size: 3
    stride: 1
  }
}
layer {
  name: "bn4b34_branch2b"
  type: "BatchNorm"
  bottom: "res4b34_branch2b"
  top: "res4b34_branch2b"
  batch_norm_param {
    use_global_stats: true
  }
}
layer {
  name: "scale4b34_branch2b"
  type: "Scale"
  bottom: "res4b34_branch2b"
  top: "res4b34_branch2b"
  scale_param {
    bias_term: true
  }
}
layer {
  name: "res4b34_branch2b_relu"
  type: "ReLU"
  bottom: "res4b34_branch2b"
  top: "res4b34_branch2b"
}
layer {
  name: "res4b34_branch2c"
  type: "Convolution"
  bottom: "res4b34_branch2b"
  top: "res4b34_branch2c"
  convolution_param {
    num_output: 1024
    bias_term: false
    pad: 0
    kernel_size: 1
    stride: 1
  }
}
layer {
  name: "bn4b34_branch2c"
  type: "BatchNorm"
  bottom: "res4b34_branch2c"
  top: "res4b34_branch2c"
  batch_norm_param {
    use_global_stats: true
  }
}
layer {
  name: "scale4b34_branch2c"
  type: "Scale"
  bottom: "res4b34_branch2c"
  top: "res4b34_branch2c"
  scale_param {
    bias_term: true
  }
}
layer {
  name: "res4b34"
  type: "Eltwise"
  bottom: "res4b33"
  bottom: "res4b34_branch2c"
  top: "res4b34"
}
layer {
  name: "res4b34_relu"
  type: "ReLU"
  bottom: "res4b34"
  top: "res4b34"
}
layer {
  name: "res4b35_branch2a"
  type: "Convolution"
  bottom: "res4b34"
  top: "res4b35_branch2a"
  convolution_param {
    num_output: 256
    bias_term: false
    pad: 0
    kernel_size: 1
    stride: 1
  }
}
layer {
  name: "bn4b35_branch2a"
  type: "BatchNorm"
  bottom: "res4b35_branch2a"
  top: "res4b35_branch2a"
  batch_norm_param {
    use_global_stats: true
  }
}
layer {
  name: "scale4b35_branch2a"
  type: "Scale"
  bottom: "res4b35_branch2a"
  top: "res4b35_branch2a"
  scale_param {
    bias_term: true
  }
}
layer {
  name: "res4b35_branch2a_relu"
  type: "ReLU"
  bottom: "res4b35_branch2a"
  top: "res4b35_branch2a"
}
layer {
  name: "res4b35_branch2b"
  type: "Convolution"
  bottom: "res4b35_branch2a"
  top: "res4b35_branch2b"
  convolution_param {
    num_output: 256
    bias_term: false
    pad: 1
    kernel_size: 3
    stride: 1
  }
}
layer {
  name: "bn4b35_branch2b"
  type: "BatchNorm"
  bottom: "res4b35_branch2b"
  top: "res4b35_branch2b"
  batch_norm_param {
    use_global_stats: true
  }
}
layer {
  name: "scale4b35_branch2b"
  type: "Scale"
  bottom: "res4b35_branch2b"
  top: "res4b35_branch2b"
  scale_param {
    bias_term: true
  }
}
layer {
  name: "res4b35_branch2b_relu"
  type: "ReLU"
  bottom: "res4b35_branch2b"
  top: "res4b35_branch2b"
}
layer {
  name: "res4b35_branch2c"
  type: "Convolution"
  bottom: "res4b35_branch2b"
  top: "res4b35_branch2c"
  convolution_param {
    num_output: 1024
    bias_term: false
    pad: 0
    kernel_size: 1
    stride: 1
  }
}
layer {
  name: "bn4b35_branch2c"
  type: "BatchNorm"
  bottom: "res4b35_branch2c"
  top: "res4b35_branch2c"
  batch_norm_param {
    use_global_stats: true
  }
}
layer {
  name: "scale4b35_branch2c"
  type: "Scale"
  bottom: "res4b35_branch2c"
  top: "res4b35_branch2c"
  scale_param {
    bias_term: true
  }
}
layer {
  name: "res4b35"
  type: "Eltwise"
  bottom: "res4b34"
  bottom: "res4b35_branch2c"
  top: "res4b35"
}
layer {
  name: "res4b35_relu"
  type: "ReLU"
  bottom: "res4b35"
  top: "res4b35"
}
layer {
  name: "res4b36_branch2a"
  type: "Convolution"
  bottom: "res4b35"
  top: "res4b36_branch2a"
  convolution_param {
    num_output: 256
    bias_term: false
    pad: 0
    kernel_size: 1
    stride: 1
  }
}
layer {
  name: "bn4b36_branch2a"
  type: "BatchNorm"
  bottom: "res4b36_branch2a"
  top: "res4b36_branch2a"
  batch_norm_param {
    use_global_stats: true
  }
}
layer {
  name: "scale4b36_branch2a"
  type: "Scale"
  bottom: "res4b36_branch2a"
  top: "res4b36_branch2a"
  scale_param {
    bias_term: true
  }
}
layer {
  name: "res4b36_branch2a_relu"
  type: "ReLU"
  bottom: "res4b36_branch2a"
  top: "res4b36_branch2a"
}
layer {
  name: "res4b36_branch2b"
  type: "Convolution"
  bottom: "res4b36_branch2a"
  top: "res4b36_branch2b"
  convolution_param {
    num_output: 256
    bias_term: false
    pad: 1
    kernel_size: 3
    stride: 1
  }
}
layer {
  name: "bn4b36_branch2b"
  type: "BatchNorm"
  bottom: "res4b36_branch2b"
  top: "res4b36_branch2b"
  batch_norm_param {
    use_global_stats: true
  }
}
layer {
  name: "scale4b36_branch2b"
  type: "Scale"
  bottom: "res4b36_branch2b"
  top: "res4b36_branch2b"
  scale_param {
    bias_term: true
  }
}
layer {
  name: "res4b36_branch2b_relu"
  type: "ReLU"
  bottom: "res4b36_branch2b"
  top: "res4b36_branch2b"
}
layer {
  name: "res4b36_branch2c"
  type: "Convolution"
  bottom: "res4b36_branch2b"
  top: "res4b36_branch2c"
  convolution_param {
    num_output: 1024
    bias_term: false
    pad: 0
    kernel_size: 1
    stride: 1
  }
}
layer {
  name: "bn4b36_branch2c"
  type: "BatchNorm"
  bottom: "res4b36_branch2c"
  top: "res4b36_branch2c"
  batch_norm_param {
    use_global_stats: true
  }
}
layer {
  name: "scale4b36_branch2c"
  type: "Scale"
  bottom: "res4b36_branch2c"
  top: "res4b36_branch2c"
  scale_param {
    bias_term: true
  }
}
layer {
  name: "res4b36"
  type: "Eltwise"
  bottom: "res4b35"
  bottom: "res4b36_branch2c"
  top: "res4b36"
}
layer {
  name: "res4b36_relu"
  type: "ReLU"
  bottom: "res4b36"
  top: "res4b36"
}
layer {
  name: "res4b37_branch2a"
  type: "Convolution"
  bottom: "res4b36"
  top: "res4b37_branch2a"
  convolution_param {
    num_output: 256
    bias_term: false
    pad: 0
    kernel_size: 1
    stride: 1
  }
}
layer {
  name: "bn4b37_branch2a"
  type: "BatchNorm"
  bottom: "res4b37_branch2a"
  top: "res4b37_branch2a"
  batch_norm_param {
    use_global_stats: true
  }
}
layer {
  name: "scale4b37_branch2a"
  type: "Scale"
  bottom: "res4b37_branch2a"
  top: "res4b37_branch2a"
  scale_param {
    bias_term: true
  }
}
layer {
  name: "res4b37_branch2a_relu"
  type: "ReLU"
  bottom: "res4b37_branch2a"
  top: "res4b37_branch2a"
}
layer {
  name: "res4b37_branch2b"
  type: "Convolution"
  bottom: "res4b37_branch2a"
  top: "res4b37_branch2b"
  convolution_param {
    num_output: 256
    bias_term: false
    pad: 1
    kernel_size: 3
    stride: 1
  }
}
layer {
  name: "bn4b37_branch2b"
  type: "BatchNorm"
  bottom: "res4b37_branch2b"
  top: "res4b37_branch2b"
  batch_norm_param {
    use_global_stats: true
  }
}
layer {
  name: "scale4b37_branch2b"
  type: "Scale"
  bottom: "res4b37_branch2b"
  top: "res4b37_branch2b"
  scale_param {
    bias_term: true
  }
}
layer {
  name: "res4b37_branch2b_relu"
  type: "ReLU"
  bottom: "res4b37_branch2b"
  top: "res4b37_branch2b"
}
layer {
  name: "res4b37_branch2c"
  type: "Convolution"
  bottom: "res4b37_branch2b"
  top: "res4b37_branch2c"
  convolution_param {
    num_output: 1024
    bias_term: false
    pad: 0
    kernel_size: 1
    stride: 1
  }
}
layer {
  name: "bn4b37_branch2c"
  type: "BatchNorm"
  bottom: "res4b37_branch2c"
  top: "res4b37_branch2c"
  batch_norm_param {
    use_global_stats: true
  }
}
layer {
  name: "scale4b37_branch2c"
  type: "Scale"
  bottom: "res4b37_branch2c"
  top: "res4b37_branch2c"
  scale_param {
    bias_term: true
  }
}
layer {
  name: "res4b37"
  type: "Eltwise"
  bottom: "res4b36"
  bottom: "res4b37_branch2c"
  top: "res4b37"
}
layer {
  name: "res4b37_relu"
  type: "ReLU"
  bottom: "res4b37"
  top: "res4b37"
}
layer {
  name: "res4b38_branch2a"
  type: "Convolution"
  bottom: "res4b37"
  top: "res4b38_branch2a"
  convolution_param {
    num_output: 256
    bias_term: false
    pad: 0
    kernel_size: 1
    stride: 1
  }
}
layer {
  name: "bn4b38_branch2a"
  type: "BatchNorm"
  bottom: "res4b38_branch2a"
  top: "res4b38_branch2a"
  batch_norm_param {
    use_global_stats: true
  }
}
layer {
  name: "scale4b38_branch2a"
  type: "Scale"
  bottom: "res4b38_branch2a"
  top: "res4b38_branch2a"
  scale_param {
    bias_term: true
  }
}
layer {
  name: "res4b38_branch2a_relu"
  type: "ReLU"
  bottom: "res4b38_branch2a"
  top: "res4b38_branch2a"
}
layer {
  name: "res4b38_branch2b"
  type: "Convolution"
  bottom: "res4b38_branch2a"
  top: "res4b38_branch2b"
  convolution_param {
    num_output: 256
    bias_term: false
    pad: 1
    kernel_size: 3
    stride: 1
  }
}
layer {
  name: "bn4b38_branch2b"
  type: "BatchNorm"
  bottom: "res4b38_branch2b"
  top: "res4b38_branch2b"
  batch_norm_param {
    use_global_stats: true
  }
}
layer {
  name: "scale4b38_branch2b"
  type: "Scale"
  bottom: "res4b38_branch2b"
  top: "res4b38_branch2b"
  scale_param {
    bias_term: true
  }
}
layer {
  name: "res4b38_branch2b_relu"
  type: "ReLU"
  bottom: "res4b38_branch2b"
  top: "res4b38_branch2b"
}
layer {
  name: "res4b38_branch2c"
  type: "Convolution"
  bottom: "res4b38_branch2b"
  top: "res4b38_branch2c"
  convolution_param {
    num_output: 1024
    bias_term: false
    pad: 0
    kernel_size: 1
    stride: 1
  }
}
layer {
  name: "bn4b38_branch2c"
  type: "BatchNorm"
  bottom: "res4b38_branch2c"
  top: "res4b38_branch2c"
  batch_norm_param {
    use_global_stats: true
  }
}
layer {
  name: "scale4b38_branch2c"
  type: "Scale"
  bottom: "res4b38_branch2c"
  top: "res4b38_branch2c"
  scale_param {
    bias_term: true
  }
}
layer {
  name: "res4b38"
  type: "Eltwise"
  bottom: "res4b37"
  bottom: "res4b38_branch2c"
  top: "res4b38"
}
layer {
  name: "res4b38_relu"
  type: "ReLU"
  bottom: "res4b38"
  top: "res4b38"
}
layer {
  name: "res4b39_branch2a"
  type: "Convolution"
  bottom: "res4b38"
  top: "res4b39_branch2a"
  convolution_param {
    num_output: 256
    bias_term: false
    pad: 0
    kernel_size: 1
    stride: 1
  }
}
layer {
  name: "bn4b39_branch2a"
  type: "BatchNorm"
  bottom: "res4b39_branch2a"
  top: "res4b39_branch2a"
  batch_norm_param {
    use_global_stats: true
  }
}
layer {
  name: "scale4b39_branch2a"
  type: "Scale"
  bottom: "res4b39_branch2a"
  top: "res4b39_branch2a"
  scale_param {
    bias_term: true
  }
}
layer {
  name: "res4b39_branch2a_relu"
  type: "ReLU"
  bottom: "res4b39_branch2a"
  top: "res4b39_branch2a"
}
layer {
  name: "res4b39_branch2b"
  type: "Convolution"
  bottom: "res4b39_branch2a"
  top: "res4b39_branch2b"
  convolution_param {
    num_output: 256
    bias_term: false
    pad: 1
    kernel_size: 3
    stride: 1
  }
}
layer {
  name: "bn4b39_branch2b"
  type: "BatchNorm"
  bottom: "res4b39_branch2b"
  top: "res4b39_branch2b"
  batch_norm_param {
    use_global_stats: true
  }
}
layer {
  name: "scale4b39_branch2b"
  type: "Scale"
  bottom: "res4b39_branch2b"
  top: "res4b39_branch2b"
  scale_param {
    bias_term: true
  }
}
layer {
  name: "res4b39_branch2b_relu"
  type: "ReLU"
  bottom: "res4b39_branch2b"
  top: "res4b39_branch2b"
}
layer {
  name: "res4b39_branch2c"
  type: "Convolution"
  bottom: "res4b39_branch2b"
  top: "res4b39_branch2c"
  convolution_param {
    num_output: 1024
    bias_term: false
    pad: 0
    kernel_size: 1
    stride: 1
  }
}
layer {
  name: "bn4b39_branch2c"
  type: "BatchNorm"
  bottom: "res4b39_branch2c"
  top: "res4b39_branch2c"
  batch_norm_param {
    use_global_stats: true
  }
}
layer {
  name: "scale4b39_branch2c"
  type: "Scale"
  bottom: "res4b39_branch2c"
  top: "res4b39_branch2c"
  scale_param {
    bias_term: true
  }
}
layer {
  name: "res4b39"
  type: "Eltwise"
  bottom: "res4b38"
  bottom: "res4b39_branch2c"
  top: "res4b39"
}
layer {
  name: "res4b39_relu"
  type: "ReLU"
  bottom: "res4b39"
  top: "res4b39"
}
layer {
  name: "res4b40_branch2a"
  type: "Convolution"
  bottom: "res4b39"
  top: "res4b40_branch2a"
  convolution_param {
    num_output: 256
    bias_term: false
    pad: 0
    kernel_size: 1
    stride: 1
  }
}
layer {
  name: "bn4b40_branch2a"
  type: "BatchNorm"
  bottom: "res4b40_branch2a"
  top: "res4b40_branch2a"
  batch_norm_param {
    use_global_stats: true
  }
}
layer {
  name: "scale4b40_branch2a"
  type: "Scale"
  bottom: "res4b40_branch2a"
  top: "res4b40_branch2a"
  scale_param {
    bias_term: true
  }
}
layer {
  name: "res4b40_branch2a_relu"
  type: "ReLU"
  bottom: "res4b40_branch2a"
  top: "res4b40_branch2a"
}
layer {
  name: "res4b40_branch2b"
  type: "Convolution"
  bottom: "res4b40_branch2a"
  top: "res4b40_branch2b"
  convolution_param {
    num_output: 256
    bias_term: false
    pad: 1
    kernel_size: 3
    stride: 1
  }
}
layer {
  name: "bn4b40_branch2b"
  type: "BatchNorm"
  bottom: "res4b40_branch2b"
  top: "res4b40_branch2b"
  batch_norm_param {
    use_global_stats: true
  }
}
layer {
  name: "scale4b40_branch2b"
  type: "Scale"
  bottom: "res4b40_branch2b"
  top: "res4b40_branch2b"
  scale_param {
    bias_term: true
  }
}
layer {
  name: "res4b40_branch2b_relu"
  type: "ReLU"
  bottom: "res4b40_branch2b"
  top: "res4b40_branch2b"
}
layer {
  name: "res4b40_branch2c"
  type: "Convolution"
  bottom: "res4b40_branch2b"
  top: "res4b40_branch2c"
  convolution_param {
    num_output: 1024
    bias_term: false
    pad: 0
    kernel_size: 1
    stride: 1
  }
}
layer {
  name: "bn4b40_branch2c"
  type: "BatchNorm"
  bottom: "res4b40_branch2c"
  top: "res4b40_branch2c"
  batch_norm_param {
    use_global_stats: true
  }
}
layer {
  name: "scale4b40_branch2c"
  type: "Scale"
  bottom: "res4b40_branch2c"
  top: "res4b40_branch2c"
  scale_param {
    bias_term: true
  }
}
layer {
  name: "res4b40"
  type: "Eltwise"
  bottom: "res4b39"
  bottom: "res4b40_branch2c"
  top: "res4b40"
}
layer {
  name: "res4b40_relu"
  type: "ReLU"
  bottom: "res4b40"
  top: "res4b40"
}
layer {
  name: "res4b41_branch2a"
  type: "Convolution"
  bottom: "res4b40"
  top: "res4b41_branch2a"
  convolution_param {
    num_output: 256
    bias_term: false
    pad: 0
    kernel_size: 1
    stride: 1
  }
}
layer {
  name: "bn4b41_branch2a"
  type: "BatchNorm"
  bottom: "res4b41_branch2a"
  top: "res4b41_branch2a"
  batch_norm_param {
    use_global_stats: true
  }
}
layer {
  name: "scale4b41_branch2a"
  type: "Scale"
  bottom: "res4b41_branch2a"
  top: "res4b41_branch2a"
  scale_param {
    bias_term: true
  }
}
layer {
  name: "res4b41_branch2a_relu"
  type: "ReLU"
  bottom: "res4b41_branch2a"
  top: "res4b41_branch2a"
}
layer {
  name: "res4b41_branch2b"
  type: "Convolution"
  bottom: "res4b41_branch2a"
  top: "res4b41_branch2b"
  convolution_param {
    num_output: 256
    bias_term: false
    pad: 1
    kernel_size: 3
    stride: 1
  }
}
layer {
  name: "bn4b41_branch2b"
  type: "BatchNorm"
  bottom: "res4b41_branch2b"
  top: "res4b41_branch2b"
  batch_norm_param {
    use_global_stats: true
  }
}
layer {
  name: "scale4b41_branch2b"
  type: "Scale"
  bottom: "res4b41_branch2b"
  top: "res4b41_branch2b"
  scale_param {
    bias_term: true
  }
}
layer {
  name: "res4b41_branch2b_relu"
  type: "ReLU"
  bottom: "res4b41_branch2b"
  top: "res4b41_branch2b"
}
layer {
  name: "res4b41_branch2c"
  type: "Convolution"
  bottom: "res4b41_branch2b"
  top: "res4b41_branch2c"
  convolution_param {
    num_output: 1024
    bias_term: false
    pad: 0
    kernel_size: 1
    stride: 1
  }
}
layer {
  name: "bn4b41_branch2c"
  type: "BatchNorm"
  bottom: "res4b41_branch2c"
  top: "res4b41_branch2c"
  batch_norm_param {
    use_global_stats: true
  }
}
layer {
  name: "scale4b41_branch2c"
  type: "Scale"
  bottom: "res4b41_branch2c"
  top: "res4b41_branch2c"
  scale_param {
    bias_term: true
  }
}
layer {
  name: "res4b41"
  type: "Eltwise"
  bottom: "res4b40"
  bottom: "res4b41_branch2c"
  top: "res4b41"
}
layer {
  name: "res4b41_relu"
  type: "ReLU"
  bottom: "res4b41"
  top: "res4b41"
}
layer {
  name: "res4b42_branch2a"
  type: "Convolution"
  bottom: "res4b41"
  top: "res4b42_branch2a"
  convolution_param {
    num_output: 256
    bias_term: false
    pad: 0
    kernel_size: 1
    stride: 1
  }
}
layer {
  name: "bn4b42_branch2a"
  type: "BatchNorm"
  bottom: "res4b42_branch2a"
  top: "res4b42_branch2a"
  batch_norm_param {
    use_global_stats: true
  }
}
layer {
  name: "scale4b42_branch2a"
  type: "Scale"
  bottom: "res4b42_branch2a"
  top: "res4b42_branch2a"
  scale_param {
    bias_term: true
  }
}
layer {
  name: "res4b42_branch2a_relu"
  type: "ReLU"
  bottom: "res4b42_branch2a"
  top: "res4b42_branch2a"
}
layer {
  name: "res4b42_branch2b"
  type: "Convolution"
  bottom: "res4b42_branch2a"
  top: "res4b42_branch2b"
  convolution_param {
    num_output: 256
    bias_term: false
    pad: 1
    kernel_size: 3
    stride: 1
  }
}
layer {
  name: "bn4b42_branch2b"
  type: "BatchNorm"
  bottom: "res4b42_branch2b"
  top: "res4b42_branch2b"
  batch_norm_param {
    use_global_stats: true
  }
}
layer {
  name: "scale4b42_branch2b"
  type: "Scale"
  bottom: "res4b42_branch2b"
  top: "res4b42_branch2b"
  scale_param {
    bias_term: true
  }
}
layer {
  name: "res4b42_branch2b_relu"
  type: "ReLU"
  bottom: "res4b42_branch2b"
  top: "res4b42_branch2b"
}
layer {
  name: "res4b42_branch2c"
  type: "Convolution"
  bottom: "res4b42_branch2b"
  top: "res4b42_branch2c"
  convolution_param {
    num_output: 1024
    bias_term: false
    pad: 0
    kernel_size: 1
    stride: 1
  }
}
layer {
  name: "bn4b42_branch2c"
  type: "BatchNorm"
  bottom: "res4b42_branch2c"
  top: "res4b42_branch2c"
  batch_norm_param {
    use_global_stats: true
  }
}
layer {
  name: "scale4b42_branch2c"
  type: "Scale"
  bottom: "res4b42_branch2c"
  top: "res4b42_branch2c"
  scale_param {
    bias_term: true
  }
}
layer {
  name: "res4b42"
  type: "Eltwise"
  bottom: "res4b41"
  bottom: "res4b42_branch2c"
  top: "res4b42"
}
layer {
  name: "res4b42_relu"
  type: "ReLU"
  bottom: "res4b42"
  top: "res4b42"
}
layer {
  name: "res4b43_branch2a"
  type: "Convolution"
  bottom: "res4b42"
  top: "res4b43_branch2a"
  convolution_param {
    num_output: 256
    bias_term: false
    pad: 0
    kernel_size: 1
    stride: 1
  }
}
layer {
  name: "bn4b43_branch2a"
  type: "BatchNorm"
  bottom: "res4b43_branch2a"
  top: "res4b43_branch2a"
  batch_norm_param {
    use_global_stats: true
  }
}
layer {
  name: "scale4b43_branch2a"
  type: "Scale"
  bottom: "res4b43_branch2a"
  top: "res4b43_branch2a"
  scale_param {
    bias_term: true
  }
}
layer {
  name: "res4b43_branch2a_relu"
  type: "ReLU"
  bottom: "res4b43_branch2a"
  top: "res4b43_branch2a"
}
layer {
  name: "res4b43_branch2b"
  type: "Convolution"
  bottom: "res4b43_branch2a"
  top: "res4b43_branch2b"
  convolution_param {
    num_output: 256
    bias_term: false
    pad: 1
    kernel_size: 3
    stride: 1
  }
}
layer {
  name: "bn4b43_branch2b"
  type: "BatchNorm"
  bottom: "res4b43_branch2b"
  top: "res4b43_branch2b"
  batch_norm_param {
    use_global_stats: true
  }
}
layer {
  name: "scale4b43_branch2b"
  type: "Scale"
  bottom: "res4b43_branch2b"
  top: "res4b43_branch2b"
  scale_param {
    bias_term: true
  }
}
layer {
  name: "res4b43_branch2b_relu"
  type: "ReLU"
  bottom: "res4b43_branch2b"
  top: "res4b43_branch2b"
}
layer {
  name: "res4b43_branch2c"
  type: "Convolution"
  bottom: "res4b43_branch2b"
  top: "res4b43_branch2c"
  convolution_param {
    num_output: 1024
    bias_term: false
    pad: 0
    kernel_size: 1
    stride: 1
  }
}
layer {
  name: "bn4b43_branch2c"
  type: "BatchNorm"
  bottom: "res4b43_branch2c"
  top: "res4b43_branch2c"
  batch_norm_param {
    use_global_stats: true
  }
}
layer {
  name: "scale4b43_branch2c"
  type: "Scale"
  bottom: "res4b43_branch2c"
  top: "res4b43_branch2c"
  scale_param {
    bias_term: true
  }
}
layer {
  name: "res4b43"
  type: "Eltwise"
  bottom: "res4b42"
  bottom: "res4b43_branch2c"
  top: "res4b43"
}
layer {
  name: "res4b43_relu"
  type: "ReLU"
  bottom: "res4b43"
  top: "res4b43"
}
layer {
  name: "res4b44_branch2a"
  type: "Convolution"
  bottom: "res4b43"
  top: "res4b44_branch2a"
  convolution_param {
    num_output: 256
    bias_term: false
    pad: 0
    kernel_size: 1
    stride: 1
  }
}
layer {
  name: "bn4b44_branch2a"
  type: "BatchNorm"
  bottom: "res4b44_branch2a"
  top: "res4b44_branch2a"
  batch_norm_param {
    use_global_stats: true
  }
}
layer {
  name: "scale4b44_branch2a"
  type: "Scale"
  bottom: "res4b44_branch2a"
  top: "res4b44_branch2a"
  scale_param {
    bias_term: true
  }
}
layer {
  name: "res4b44_branch2a_relu"
  type: "ReLU"
  bottom: "res4b44_branch2a"
  top: "res4b44_branch2a"
}
layer {
  name: "res4b44_branch2b"
  type: "Convolution"
  bottom: "res4b44_branch2a"
  top: "res4b44_branch2b"
  convolution_param {
    num_output: 256
    bias_term: false
    pad: 1
    kernel_size: 3
    stride: 1
  }
}
layer {
  name: "bn4b44_branch2b"
  type: "BatchNorm"
  bottom: "res4b44_branch2b"
  top: "res4b44_branch2b"
  batch_norm_param {
    use_global_stats: true
  }
}
layer {
  name: "scale4b44_branch2b"
  type: "Scale"
  bottom: "res4b44_branch2b"
  top: "res4b44_branch2b"
  scale_param {
    bias_term: true
  }
}
layer {
  name: "res4b44_branch2b_relu"
  type: "ReLU"
  bottom: "res4b44_branch2b"
  top: "res4b44_branch2b"
}
layer {
  name: "res4b44_branch2c"
  type: "Convolution"
  bottom: "res4b44_branch2b"
  top: "res4b44_branch2c"
  convolution_param {
    num_output: 1024
    bias_term: false
    pad: 0
    kernel_size: 1
    stride: 1
  }
}
layer {
  name: "bn4b44_branch2c"
  type: "BatchNorm"
  bottom: "res4b44_branch2c"
  top: "res4b44_branch2c"
  batch_norm_param {
    use_global_stats: true
  }
}
layer {
  name: "scale4b44_branch2c"
  type: "Scale"
  bottom: "res4b44_branch2c"
  top: "res4b44_branch2c"
  scale_param {
    bias_term: true
  }
}
layer {
  name: "res4b44"
  type: "Eltwise"
  bottom: "res4b43"
  bottom: "res4b44_branch2c"
  top: "res4b44"
}
layer {
  name: "res4b44_relu"
  type: "ReLU"
  bottom: "res4b44"
  top: "res4b44"
}
layer {
  name: "res4b45_branch2a"
  type: "Convolution"
  bottom: "res4b44"
  top: "res4b45_branch2a"
  convolution_param {
    num_output: 256
    bias_term: false
    pad: 0
    kernel_size: 1
    stride: 1
  }
}
layer {
  name: "bn4b45_branch2a"
  type: "BatchNorm"
  bottom: "res4b45_branch2a"
  top: "res4b45_branch2a"
  batch_norm_param {
    use_global_stats: true
  }
}
layer {
  name: "scale4b45_branch2a"
  type: "Scale"
  bottom: "res4b45_branch2a"
  top: "res4b45_branch2a"
  scale_param {
    bias_term: true
  }
}
layer {
  name: "res4b45_branch2a_relu"
  type: "ReLU"
  bottom: "res4b45_branch2a"
  top: "res4b45_branch2a"
}
layer {
  name: "res4b45_branch2b"
  type: "Convolution"
  bottom: "res4b45_branch2a"
  top: "res4b45_branch2b"
  convolution_param {
    num_output: 256
    bias_term: false
    pad: 1
    kernel_size: 3
    stride: 1
  }
}
layer {
  name: "bn4b45_branch2b"
  type: "BatchNorm"
  bottom: "res4b45_branch2b"
  top: "res4b45_branch2b"
  batch_norm_param {
    use_global_stats: true
  }
}
layer {
  name: "scale4b45_branch2b"
  type: "Scale"
  bottom: "res4b45_branch2b"
  top: "res4b45_branch2b"
  scale_param {
    bias_term: true
  }
}
layer {
  name: "res4b45_branch2b_relu"
  type: "ReLU"
  bottom: "res4b45_branch2b"
  top: "res4b45_branch2b"
}
layer {
  name: "res4b45_branch2c"
  type: "Convolution"
  bottom: "res4b45_branch2b"
  top: "res4b45_branch2c"
  convolution_param {
    num_output: 1024
    bias_term: false
    pad: 0
    kernel_size: 1
    stride: 1
  }
}
layer {
  name: "bn4b45_branch2c"
  type: "BatchNorm"
  bottom: "res4b45_branch2c"
  top: "res4b45_branch2c"
  batch_norm_param {
    use_global_stats: true
  }
}
layer {
  name: "scale4b45_branch2c"
  type: "Scale"
  bottom: "res4b45_branch2c"
  top: "res4b45_branch2c"
  scale_param {
    bias_term: true
  }
}
layer {
  name: "res4b45"
  type: "Eltwise"
  bottom: "res4b44"
  bottom: "res4b45_branch2c"
  top: "res4b45"
}
layer {
  name: "res4b45_relu"
  type: "ReLU"
  bottom: "res4b45"
  top: "res4b45"
}
layer {
  name: "res4b46_branch2a"
  type: "Convolution"
  bottom: "res4b45"
  top: "res4b46_branch2a"
  convolution_param {
    num_output: 256
    bias_term: false
    pad: 0
    kernel_size: 1
    stride: 1
  }
}
layer {
  name: "bn4b46_branch2a"
  type: "BatchNorm"
  bottom: "res4b46_branch2a"
  top: "res4b46_branch2a"
  batch_norm_param {
    use_global_stats: true
  }
}
layer {
  name: "scale4b46_branch2a"
  type: "Scale"
  bottom: "res4b46_branch2a"
  top: "res4b46_branch2a"
  scale_param {
    bias_term: true
  }
}
layer {
  name: "res4b46_branch2a_relu"
  type: "ReLU"
  bottom: "res4b46_branch2a"
  top: "res4b46_branch2a"
}
layer {
  name: "res4b46_branch2b"
  type: "Convolution"
  bottom: "res4b46_branch2a"
  top: "res4b46_branch2b"
  convolution_param {
    num_output: 256
    bias_term: false
    pad: 1
    kernel_size: 3
    stride: 1
  }
}
layer {
  name: "bn4b46_branch2b"
  type: "BatchNorm"
  bottom: "res4b46_branch2b"
  top: "res4b46_branch2b"
  batch_norm_param {
    use_global_stats: true
  }
}
layer {
  name: "scale4b46_branch2b"
  type: "Scale"
  bottom: "res4b46_branch2b"
  top: "res4b46_branch2b"
  scale_param {
    bias_term: true
  }
}
layer {
  name: "res4b46_branch2b_relu"
  type: "ReLU"
  bottom: "res4b46_branch2b"
  top: "res4b46_branch2b"
}
layer {
  name: "res4b46_branch2c"
  type: "Convolution"
  bottom: "res4b46_branch2b"
  top: "res4b46_branch2c"
  convolution_param {
    num_output: 1024
    bias_term: false
    pad: 0
    kernel_size: 1
    stride: 1
  }
}
layer {
  name: "bn4b46_branch2c"
  type: "BatchNorm"
  bottom: "res4b46_branch2c"
  top: "res4b46_branch2c"
  batch_norm_param {
    use_global_stats: true
  }
}
layer {
  name: "scale4b46_branch2c"
  type: "Scale"
  bottom: "res4b46_branch2c"
  top: "res4b46_branch2c"
  scale_param {
    bias_term: true
  }
}
layer {
  name: "res4b46"
  type: "Eltwise"
  bottom: "res4b45"
  bottom: "res4b46_branch2c"
  top: "res4b46"
}
layer {
  name: "res4b46_relu"
  type: "ReLU"
  bottom: "res4b46"
  top: "res4b46"
}
layer {
  name: "res4b47_branch2a"
  type: "Convolution"
  bottom: "res4b46"
  top: "res4b47_branch2a"
  convolution_param {
    num_output: 256
    bias_term: false
    pad: 0
    kernel_size: 1
    stride: 1
  }
}
layer {
  name: "bn4b47_branch2a"
  type: "BatchNorm"
  bottom: "res4b47_branch2a"
  top: "res4b47_branch2a"
  batch_norm_param {
    use_global_stats: true
  }
}
layer {
  name: "scale4b47_branch2a"
  type: "Scale"
  bottom: "res4b47_branch2a"
  top: "res4b47_branch2a"
  scale_param {
    bias_term: true
  }
}
layer {
  name: "res4b47_branch2a_relu"
  type: "ReLU"
  bottom: "res4b47_branch2a"
  top: "res4b47_branch2a"
}
layer {
  name: "res4b47_branch2b"
  type: "Convolution"
  bottom: "res4b47_branch2a"
  top: "res4b47_branch2b"
  convolution_param {
    num_output: 256
    bias_term: false
    pad: 1
    kernel_size: 3
    stride: 1
  }
}
layer {
  name: "bn4b47_branch2b"
  type: "BatchNorm"
  bottom: "res4b47_branch2b"
  top: "res4b47_branch2b"
  batch_norm_param {
    use_global_stats: true
  }
}
layer {
  name: "scale4b47_branch2b"
  type: "Scale"
  bottom: "res4b47_branch2b"
  top: "res4b47_branch2b"
  scale_param {
    bias_term: true
  }
}
layer {
  name: "res4b47_branch2b_relu"
  type: "ReLU"
  bottom: "res4b47_branch2b"
  top: "res4b47_branch2b"
}
layer {
  name: "res4b47_branch2c"
  type: "Convolution"
  bottom: "res4b47_branch2b"
  top: "res4b47_branch2c"
  convolution_param {
    num_output: 1024
    bias_term: false
    pad: 0
    kernel_size: 1
    stride: 1
  }
}
layer {
  name: "bn4b47_branch2c"
  type: "BatchNorm"
  bottom: "res4b47_branch2c"
  top: "res4b47_branch2c"
  batch_norm_param {
    use_global_stats: true
  }
}
layer {
  name: "scale4b47_branch2c"
  type: "Scale"
  bottom: "res4b47_branch2c"
  top: "res4b47_branch2c"
  scale_param {
    bias_term: true
  }
}
layer {
  name: "res4b47"
  type: "Eltwise"
  bottom: "res4b46"
  bottom: "res4b47_branch2c"
  top: "res4b47"
}
layer {
  name: "res4b47_relu"
  type: "ReLU"
  bottom: "res4b47"
  top: "res4b47"
}
layer {
  name: "res5a_branch1"
  type: "Convolution"
  bottom: "res4b47"
  top: "res5a_branch1"
  convolution_param {
    num_output: 2048
    bias_term: false
    pad: 0
    kernel_size: 1
    stride: 2
  }
}
layer {
  name: "bn5a_branch1"
  type: "BatchNorm"
  bottom: "res5a_branch1"
  top: "res5a_branch1"
  batch_norm_param {
    use_global_stats: true
  }
}
layer {
  name: "scale5a_branch1"
  type: "Scale"
  bottom: "res5a_branch1"
  top: "res5a_branch1"
  scale_param {
    bias_term: true
  }
}
layer {
  name: "res5a_branch2a"
  type: "Convolution"
  bottom: "res4b47"
  top: "res5a_branch2a"
  convolution_param {
    num_output: 512
    bias_term: false
    pad: 0
    kernel_size: 1
    stride: 2
  }
}
layer {
  name: "bn5a_branch2a"
  type: "BatchNorm"
  bottom: "res5a_branch2a"
  top: "res5a_branch2a"
  batch_norm_param {
    use_global_stats: true
  }
}
layer {
  name: "scale5a_branch2a"
  type: "Scale"
  bottom: "res5a_branch2a"
  top: "res5a_branch2a"
  scale_param {
    bias_term: true
  }
}
layer {
  name: "res5a_branch2a_relu"
  type: "ReLU"
  bottom: "res5a_branch2a"
  top: "res5a_branch2a"
}
layer {
  name: "res5a_branch2b"
  type: "Convolution"
  bottom: "res5a_branch2a"
  top: "res5a_branch2b"
  convolution_param {
    num_output: 512
    bias_term: false
    pad: 1
    kernel_size: 3
    stride: 1
  }
}
layer {
  name: "bn5a_branch2b"
  type: "BatchNorm"
  bottom: "res5a_branch2b"
  top: "res5a_branch2b"
  batch_norm_param {
    use_global_stats: true
  }
}
layer {
  name: "scale5a_branch2b"
  type: "Scale"
  bottom: "res5a_branch2b"
  top: "res5a_branch2b"
  scale_param {
    bias_term: true
  }
}
layer {
  name: "res5a_branch2b_relu"
  type: "ReLU"
  bottom: "res5a_branch2b"
  top: "res5a_branch2b"
}
layer {
  name: "res5a_branch2c"
  type: "Convolution"
  bottom: "res5a_branch2b"
  top: "res5a_branch2c"
  convolution_param {
    num_output: 2048
    bias_term: false
    pad: 0
    kernel_size: 1
    stride: 1
  }
}
layer {
  name: "bn5a_branch2c"
  type: "BatchNorm"
  bottom: "res5a_branch2c"
  top: "res5a_branch2c"
  batch_norm_param {
    use_global_stats: true
  }
}
layer {
  name: "scale5a_branch2c"
  type: "Scale"
  bottom: "res5a_branch2c"
  top: "res5a_branch2c"
  scale_param {
    bias_term: true
  }
}
layer {
  name: "res5a"
  type: "Eltwise"
  bottom: "res5a_branch1"
  bottom: "res5a_branch2c"
  top: "res5a"
}
layer {
  name: "res5a_relu"
  type: "ReLU"
  bottom: "res5a"
  top: "res5a"
}
layer {
  name: "res5b_branch2a"
  type: "Convolution"
  bottom: "res5a"
  top: "res5b_branch2a"
  convolution_param {
    num_output: 512
    bias_term: false
    pad: 0
    kernel_size: 1
    stride: 1
  }
}
layer {
  name: "bn5b_branch2a"
  type: "BatchNorm"
  bottom: "res5b_branch2a"
  top: "res5b_branch2a"
  batch_norm_param {
    use_global_stats: true
  }
}
layer {
  name: "scale5b_branch2a"
  type: "Scale"
  bottom: "res5b_branch2a"
  top: "res5b_branch2a"
  scale_param {
    bias_term: true
  }
}
layer {
  name: "res5b_branch2a_relu"
  type: "ReLU"
  bottom: "res5b_branch2a"
  top: "res5b_branch2a"
}
layer {
  name: "res5b_branch2b"
  type: "Convolution"
  bottom: "res5b_branch2a"
  top: "res5b_branch2b"
  convolution_param {
    num_output: 512
    bias_term: false
    pad: 1
    kernel_size: 3
    stride: 1
  }
}
layer {
  name: "bn5b_branch2b"
  type: "BatchNorm"
  bottom: "res5b_branch2b"
  top: "res5b_branch2b"
  batch_norm_param {
    use_global_stats: true
  }
}
layer {
  name: "scale5b_branch2b"
  type: "Scale"
  bottom: "res5b_branch2b"
  top: "res5b_branch2b"
  scale_param {
    bias_term: true
  }
}
layer {
  name: "res5b_branch2b_relu"
  type: "ReLU"
  bottom: "res5b_branch2b"
  top: "res5b_branch2b"
}
layer {
  name: "res5b_branch2c"
  type: "Convolution"
  bottom: "res5b_branch2b"
  top: "res5b_branch2c"
  convolution_param {
    num_output: 2048
    bias_term: false
    pad: 0
    kernel_size: 1
    stride: 1
  }
}
layer {
  name: "bn5b_branch2c"
  type: "BatchNorm"
  bottom: "res5b_branch2c"
  top: "res5b_branch2c"
  batch_norm_param {
    use_global_stats: true
  }
}
layer {
  name: "scale5b_branch2c"
  type: "Scale"
  bottom: "res5b_branch2c"
  top: "res5b_branch2c"
  scale_param {
    bias_term: true
  }
}
layer {
  name: "res5b"
  type: "Eltwise"
  bottom: "res5a"
  bottom: "res5b_branch2c"
  top: "res5b"
}
layer {
  name: "res5b_relu"
  type: "ReLU"
  bottom: "res5b"
  top: "res5b"
}
layer {
  name: "res5c_branch2a"
  type: "Convolution"
  bottom: "res5b"
  top: "res5c_branch2a"
  convolution_param {
    num_output: 512
    bias_term: false
    pad: 0
    kernel_size: 1
    stride: 1
  }
}
layer {
  name: "bn5c_branch2a"
  type: "BatchNorm"
  bottom: "res5c_branch2a"
  top: "res5c_branch2a"
  batch_norm_param {
    use_global_stats: true
  }
}
layer {
  name: "scale5c_branch2a"
  type: "Scale"
  bottom: "res5c_branch2a"
  top: "res5c_branch2a"
  scale_param {
    bias_term: true
  }
}
layer {
  name: "res5c_branch2a_relu"
  type: "ReLU"
  bottom: "res5c_branch2a"
  top: "res5c_branch2a"
}
layer {
  name: "res5c_branch2b"
  type: "Convolution"
  bottom: "res5c_branch2a"
  top: "res5c_branch2b"
  convolution_param {
    num_output: 512
    bias_term: false
    pad: 1
    kernel_size: 3
    stride: 1
  }
}
layer {
  name: "bn5c_branch2b"
  type: "BatchNorm"
  bottom: "res5c_branch2b"
  top: "res5c_branch2b"
  batch_norm_param {
    use_global_stats: true
  }
}
layer {
  name: "scale5c_branch2b"
  type: "Scale"
  bottom: "res5c_branch2b"
  top: "res5c_branch2b"
  scale_param {
    bias_term: true
  }
}
layer {
  name: "res5c_branch2b_relu"
  type: "ReLU"
  bottom: "res5c_branch2b"
  top: "res5c_branch2b"
}
layer {
  name: "res5c_branch2c"
  type: "Convolution"
  bottom: "res5c_branch2b"
  top: "res5c_branch2c"
  convolution_param {
    num_output: 2048
    bias_term: false
    pad: 0
    kernel_size: 1
    stride: 1
  }
}
layer {
  name: "bn5c_branch2c"
  type: "BatchNorm"
  bottom: "res5c_branch2c"
  top: "res5c_branch2c"
  batch_norm_param {
    use_global_stats: true
  }
}
layer {
  name: "scale5c_branch2c"
  type: "Scale"
  bottom: "res5c_branch2c"
  top: "res5c_branch2c"
  scale_param {
    bias_term: true
  }
}
layer {
  name: "res5c"
  type: "Eltwise"
  bottom: "res5b"
  bottom: "res5c_branch2c"
  top: "res5c"
}
layer {
  name: "res5c_relu"
  type: "ReLU"
  bottom: "res5c"
  top: "res5c"
}
layer {
  name: "res5d_branch2a"
  type: "Convolution"
  bottom: "res5c"
  top: "res5d_branch2a"
  convolution_param {
    num_output: 512
    bias_term: false
    pad: 0
    kernel_size: 1
    stride: 1
  }
}
layer {
  name: "bn5d_branch2a"
  type: "BatchNorm"
  bottom: "res5d_branch2a"
  top: "res5d_branch2a"
  batch_norm_param {
    use_global_stats: true
  }
}
layer {
  name: "scale5d_branch2a"
  type: "Scale"
  bottom: "res5d_branch2a"
  top: "res5d_branch2a"
  scale_param {
    bias_term: true
  }
}
layer {
  name: "res5d_branch2a_relu"
  type: "ReLU"
  bottom: "res5d_branch2a"
  top: "res5d_branch2a"
}
layer {
  name: "res5d_branch2b"
  type: "Convolution"
  bottom: "res5d_branch2a"
  top: "res5d_branch2b"
  convolution_param {
    num_output: 512
    bias_term: false
    pad: 1
    kernel_size: 3
    stride: 1
  }
}
layer {
  name: "bn5d_branch2b"
  type: "BatchNorm"
  bottom: "res5d_branch2b"
  top: "res5d_branch2b"
  batch_norm_param {
    use_global_stats: true
  }
}
layer {
  name: "scale5d_branch2b"
  type: "Scale"
  bottom: "res5d_branch2b"
  top: "res5d_branch2b"
  scale_param {
    bias_term: true
  }
}
layer {
  name: "res5d_branch2b_relu"
  type: "ReLU"
  bottom: "res5d_branch2b"
  top: "res5d_branch2b"
}
layer {
  name: "res5d_branch2c"
  type: "Convolution"
  bottom: "res5d_branch2b"
  top: "res5d_branch2c"
  convolution_param {
    num_output: 2048
    bias_term: false
    pad: 0
    kernel_size: 1
    stride: 1
  }
}
layer {
  name: "bn5d_branch2c"
  type: "BatchNorm"
  bottom: "res5d_branch2c"
  top: "res5d_branch2c"
  batch_norm_param {
    use_global_stats: true
  }
}
layer {
  name: "scale5d_branch2c"
  type: "Scale"
  bottom: "res5d_branch2c"
  top: "res5d_branch2c"
  scale_param {
    bias_term: true
  }
}
layer {
  name: "res5d"
  type: "Eltwise"
  bottom: "res5c"
  bottom: "res5d_branch2c"
  top: "res5d"
}
layer {
  name: "res5d_relu"
  type: "ReLU"
  bottom: "res5d"
  top: "res5d"
}
layer {
  name: "res5e_branch2a"
  type: "Convolution"
  bottom: "res5d"
  top: "res5e_branch2a"
  convolution_param {
    num_output: 512
    bias_term: false
    pad: 0
    kernel_size: 1
    stride: 1
  }
}
layer {
  name: "bn5e_branch2a"
  type: "BatchNorm"
  bottom: "res5e_branch2a"
  top: "res5e_branch2a"
  batch_norm_param {
    use_global_stats: true
  }
}
layer {
  name: "scale5e_branch2a"
  type: "Scale"
  bottom: "res5e_branch2a"
  top: "res5e_branch2a"
  scale_param {
    bias_term: true
  }
}
layer {
  name: "res5e_branch2a_relu"
  type: "ReLU"
  bottom: "res5e_branch2a"
  top: "res5e_branch2a"
}
layer {
  name: "res5e_branch2b"
  type: "Convolution"
  bottom: "res5e_branch2a"
  top: "res5e_branch2b"
  convolution_param {
    num_output: 512
    bias_term: false
    pad: 1
    kernel_size: 3
    stride: 1
  }
}
layer {
  name: "bn5e_branch2b"
  type: "BatchNorm"
  bottom: "res5e_branch2b"
  top: "res5e_branch2b"
  batch_norm_param {
    use_global_stats: true
  }
}
layer {
  name: "scale5e_branch2b"
  type: "Scale"
  bottom: "res5e_branch2b"
  top: "res5e_branch2b"
  scale_param {
    bias_term: true
  }
}
layer {
  name: "res5e_branch2b_relu"
  type: "ReLU"
  bottom: "res5e_branch2b"
  top: "res5e_branch2b"
}
layer {
  name: "res5e_branch2c"
  type: "Convolution"
  bottom: "res5e_branch2b"
  top: "res5e_branch2c"
  convolution_param {
    num_output: 2048
    bias_term: false
    pad: 0
    kernel_size: 1
    stride: 1
  }
}
layer {
  name: "bn5e_branch2c"
  type: "BatchNorm"
  bottom: "res5e_branch2c"
  top: "res5e_branch2c"
  batch_norm_param {
    use_global_stats: true
  }
}
layer {
  name: "scale5e_branch2c"
  type: "Scale"
  bottom: "res5e_branch2c"
  top: "res5e_branch2c"
  scale_param {
    bias_term: true
  }
}
layer {
  name: "res5e"
  type: "Eltwise"
  bottom: "res5d"
  bottom: "res5e_branch2c"
  top: "res5e"
}
layer {
  name: "res5e_relu"
  type: "ReLU"
  bottom: "res5e"
  top: "res5e"
}
layer {
  name: "res5f_branch2a"
  type: "Convolution"
  bottom: "res5e"
  top: "res5f_branch2a"
  convolution_param {
    num_output: 512
    bias_term: false
    pad: 0
    kernel_size: 1
    stride: 1
  }
}
layer {
  name: "bn5f_branch2a"
  type: "BatchNorm"
  bottom: "res5f_branch2a"
  top: "res5f_branch2a"
  batch_norm_param {
    use_global_stats: true
  }
}
layer {
  name: "scale5f_branch2a"
  type: "Scale"
  bottom: "res5f_branch2a"
  top: "res5f_branch2a"
  scale_param {
    bias_term: true
  }
}
layer {
  name: "res5f_branch2a_relu"
  type: "ReLU"
  bottom: "res5f_branch2a"
  top: "res5f_branch2a"
}
layer {
  name: "res5f_branch2b"
  type: "Convolution"
  bottom: "res5f_branch2a"
  top: "res5f_branch2b"
  convolution_param {
    num_output: 512
    bias_term: false
    pad: 1
    kernel_size: 3
    stride: 1
  }
}
layer {
  name: "bn5f_branch2b"
  type: "BatchNorm"
  bottom: "res5f_branch2b"
  top: "res5f_branch2b"
  batch_norm_param {
    use_global_stats: true
  }
}
layer {
  name: "scale5f_branch2b"
  type: "Scale"
  bottom: "res5f_branch2b"
  top: "res5f_branch2b"
  scale_param {
    bias_term: true
  }
}
layer {
  name: "res5f_branch2b_relu"
  type: "ReLU"
  bottom: "res5f_branch2b"
  top: "res5f_branch2b"
}
layer {
  name: "res5f_branch2c"
  type: "Convolution"
  bottom: "res5f_branch2b"
  top: "res5f_branch2c"
  convolution_param {
    num_output: 2048
    bias_term: false
    pad: 0
    kernel_size: 1
    stride: 1
  }
}
layer {
  name: "bn5f_branch2c"
  type: "BatchNorm"
  bottom: "res5f_branch2c"
  top: "res5f_branch2c"
  batch_norm_param {
    use_global_stats: true
  }
}
layer {
  name: "scale5f_branch2c"
  type: "Scale"
  bottom: "res5f_branch2c"
  top: "res5f_branch2c"
  scale_param {
    bias_term: true
  }
}
layer {
  name: "res5f"
  type: "Eltwise"
  bottom: "res5e"
  bottom: "res5f_branch2c"
  top: "res5f"
}
layer {
  name: "res5f_relu"
  type: "ReLU"
  bottom: "res5f"
  top: "res5f"
}
layer {
  name: "res5g_branch2a"
  type: "Convolution"
  bottom: "res5f"
  top: "res5g_branch2a"
  convolution_param {
    num_output: 512
    bias_term: false
    pad: 0
    kernel_size: 1
    stride: 1
  }
}
layer {
  name: "bn5g_branch2a"
  type: "BatchNorm"
  bottom: "res5g_branch2a"
  top: "res5g_branch2a"
  batch_norm_param {
    use_global_stats: true
  }
}
layer {
  name: "scale5g_branch2a"
  type: "Scale"
  bottom: "res5g_branch2a"
  top: "res5g_branch2a"
  scale_param {
    bias_term: true
  }
}
layer {
  name: "res5g_branch2a_relu"
  type: "ReLU"
  bottom: "res5g_branch2a"
  top: "res5g_branch2a"
}
layer {
  name: "res5g_branch2b"
  type: "Convolution"
  bottom: "res5g_branch2a"
  top: "res5g_branch2b"
  convolution_param {
    num_output: 512
    bias_term: false
    pad: 1
    kernel_size: 3
    stride: 1
  }
}
layer {
  name: "bn5g_branch2b"
  type: "BatchNorm"
  bottom: "res5g_branch2b"
  top: "res5g_branch2b"
  batch_norm_param {
    use_global_stats: true
  }
}
layer {
  name: "scale5g_branch2b"
  type: "Scale"
  bottom: "res5g_branch2b"
  top: "res5g_branch2b"
  scale_param {
    bias_term: true
  }
}
layer {
  name: "res5g_branch2b_relu"
  type: "ReLU"
  bottom: "res5g_branch2b"
  top: "res5g_branch2b"
}
layer {
  name: "res5g_branch2c"
  type: "Convolution"
  bottom: "res5g_branch2b"
  top: "res5g_branch2c"
  convolution_param {
    num_output: 2048
    bias_term: false
    pad: 0
    kernel_size: 1
    stride: 1
  }
}
layer {
  name: "bn5g_branch2c"
  type: "BatchNorm"
  bottom: "res5g_branch2c"
  top: "res5g_branch2c"
  batch_norm_param {
    use_global_stats: true
  }
}
layer {
  name: "scale5g_branch2c"
  type: "Scale"
  bottom: "res5g_branch2c"
  top: "res5g_branch2c"
  scale_param {
    bias_term: true
  }
}
layer {
  name: "res5g"
  type: "Eltwise"
  bottom: "res5f"
  bottom: "res5g_branch2c"
  top: "res5g"
}
layer {
  name: "res5g_relu"
  type: "ReLU"
  bottom: "res5g"
  top: "res5g"
}
layer {
  name: "res5h_branch2a"
  type: "Convolution"
  bottom: "res5g"
  top: "res5h_branch2a"
  convolution_param {
    num_output: 512
    bias_term: false
    pad: 0
    kernel_size: 1
    stride: 1
  }
}
layer {
  name: "bn5h_branch2a"
  type: "BatchNorm"
  bottom: "res5h_branch2a"
  top: "res5h_branch2a"
  batch_norm_param {
    use_global_stats: true
  }
}
layer {
  name: "scale5h_branch2a"
  type: "Scale"
  bottom: "res5h_branch2a"
  top: "res5h_branch2a"
  scale_param {
    bias_term: true
  }
}
layer {
  name: "res5h_branch2a_relu"
  type: "ReLU"
  bottom: "res5h_branch2a"
  top: "res5h_branch2a"
}
layer {
  name: "res5h_branch2b"
  type: "Convolution"
  bottom: "res5h_branch2a"
  top: "res5h_branch2b"
  convolution_param {
    num_output: 512
    bias_term: false
    pad: 1
    kernel_size: 3
    stride: 1
  }
}
layer {
  name: "bn5h_branch2b"
  type: "BatchNorm"
  bottom: "res5h_branch2b"
  top: "res5h_branch2b"
  batch_norm_param {
    use_global_stats: true
  }
}
layer {
  name: "scale5h_branch2b"
  type: "Scale"
  bottom: "res5h_branch2b"
  top: "res5h_branch2b"
  scale_param {
    bias_term: true
  }
}
layer {
  name: "res5h_branch2b_relu"
  type: "ReLU"
  bottom: "res5h_branch2b"
  top: "res5h_branch2b"
}
layer {
  name: "res5h_branch2c"
  type: "Convolution"
  bottom: "res5h_branch2b"
  top: "res5h_branch2c"
  convolution_param {
    num_output: 2048
    bias_term: false
    pad: 0
    kernel_size: 1
    stride: 1
  }
}
layer {
  name: "bn5h_branch2c"
  type: "BatchNorm"
  bottom: "res5h_branch2c"
  top: "res5h_branch2c"
  batch_norm_param {
    use_global_stats: true
  }
}
layer {
  name: "scale5h_branch2c"
  type: "Scale"
  bottom: "res5h_branch2c"
  top: "res5h_branch2c"
  scale_param {
    bias_term: true
  }
}
layer {
  name: "res5h"
  type: "Eltwise"
  bottom: "res5g"
  bottom: "res5h_branch2c"
  top: "res5h"
}
layer {
  name: "res5h_relu"
  type: "ReLU"
  bottom: "res5h"
  top: "res5h"
}
layer {
  name: "pool5"
  type: "Pooling"
  bottom: "res5h"
  top: "pool5"
  pooling_param {
    pool: AVE
    kernel_size: 7
    stride: 1
  }
}
layer {
  name: "fc1000"
  type: "InnerProduct"
  bottom: "pool5"
  top: "fc1000"
  inner_product_param {
    num_output: 1000
  }
}
layer {
  name: "prob"
  type: "Softmax"
  bottom: "fc1000"
  top: "prob"
}
